mnist_model_epoch.pth (torch, 904784 bytes, 26 tensors)

weight f4 [64, 3, 5, 5]
0	0x3e9ce63e	0.3064441
1	0x3d90ef32	0.07076873
2	0x3d683bcf	0.056697663
3	0xbda780e4	-0.08178881
4	0xbea104f7	-0.314491
5	0x3e71b372	0.23603609
6	0xbdef7f02	-0.11694147
7	0xbc04cfc8	-0.00810618
8	0xbd88f4cc	-0.06687316
9	0xbeee5126	-0.46546286
10	0x3e221e05	0.15831764
11	0xbe470d5c	-0.1943869
12	0x3db3784e	0.08763181
13	0x3ca4301b	0.02004247
14	0xbeeb7d86	-0.45994204
15	0x3e61e313	0.22059278
16	0xbdfdef04	-0.12399104
17	0x3d926add	0.07149289
18	0xbe175f85	-0.14782532
19	0xbef24e86	-0.47325534
20	0x3e276cb8	0.16350067
21	0xbdb416cf	-0.08793413
22	0xbdb717be	-0.08940075
23	0xbe30843b	-0.17237942
24	0xbe57d7f1	-0.21078469
25	0x3eb897e1	0.36053374
26	0x3d877f63	0.06616094
27	0xbe227f0c	-0.15868777
28	0xbdd4b96a	-0.103869274
29	0xbe82d2bd	-0.25551406
30	0x3df77467	0.12082749
31	0xbde4413a	-0.111452535
32	0x3d79bc1b	0.060970407
33	0x3d4e919d	0.050431836
34	0xbefccad3	-0.49373493
35	0x3ddfeb60	0.10933566
36	0xbe49a722	-0.19692662
37	0x3be28a84	0.006913485
38	0xbe13c0d6	-0.1442903
39	0xbea5c751	-0.3237863
40	0x3e74f7df	0.2392268
41	0x3d264320	0.04059136
42	0xbe067dad	-0.13133879
43	0xbdc7ae41	-0.09750033
44	0xbeed41f4	-0.4633938
45	0xbce317b3	-0.027721262
46	0xbdaaccf9	-0.08339877
47	0xbd0ece3c	-0.03486465
48	0xbe46a13c	-0.19397444
49	0xbe888922	-0.26667124
50	0x3eb27f74	0.34862864
51	0x3e01273e	0.12612626
52	0xbd6439b3	-0.05571909
53	0x3caade14	0.020857848
54	0xbed05830	-0.40692282
55	0x3e6a2848	0.22866929
56	0xbb3c9a85	-0.0028778624
57	0x3d93594c	0.071947664
58	0xbd72db14	-0.05929096
59	0xbe9c91f2	-0.30580097
60	0x3deeeb74	0.11666003
61	0xbdcb629a	-0.09930916
62	0x3c17e847	0.009271688
63	0xbdb56dfc	-0.088588685
64	0xbea7bc19	-0.32760695
65	0x3e962a07	0.2932894
66	0xbcec9086	-0.028877508
67	0x3d918715	0.07105843
68	0xbe24cf1a	-0.16094628
69	0xbedfcb6b	-0.43709883
70	0xbcbeed7d	-0.023306603
71	0x3d37aa75	0.044840295
72	0xbd5f3106	-0.05449011
73	0xbe4443a1	-0.19166423
74	0xbed35da1	-0.4128237
75	0xbdf108ad	-0.11769233
76	0xbdc75878	-0.09733671
77	0xbdf26459	-0.11835546
78	0xbd000ddc	-0.031263217
79	0xbeac15c1	-0.33610347
80	0x3d8f78e0	0.07005477
81	0xbe47b0f4	-0.19501096
82	0x3db2e730	0.08735502
83	0xbd8c22ad	-0.068425514
84	0xbbebe7e5	-0.007199275
85	0x3e216273	0.15760212
86	0xbebfe6a2	-0.37480646
87	0xbd95ab4b	-0.07308062
88	0xbe0573d6	-0.13032469
89	0xbe31a24e	-0.1734707
90	0x3e99191f	0.29901978
91	0xbe923354	-0.28554785
92	0xbe9e87f5	-0.30963102
93	0xbec238e2	-0.37934023
94	0xbe25d211	-0.16193415
95	0x3e62b017	0.22137485
96	0x3d999b1f	0.0750029
97	0xbd15fb5f	-0.03661668
98	0x3e54ce15	0.20781739
99	0x3e88bf26	0.26708335
100	0xbdca5a17	-0.098804645
101	0xbe6e9501	-0.23299028
102	0x3ce9d575	0.028544167
103	0xbe2c1c19	-0.16807593
104	0xbebf306c	-0.3734163
105	0xbd16de80	-0.036833286
106	0xbe5b974b	-0.21444432
107	0x3dd2d62c	0.10294756
108	0xbd5d20e7	-0.053986456
109	0xbc4b2338	-0.0123985335
110	0x3e37d6bc	0.17953008
111	0xbe91fa9a	-0.28511506
112	0xbdb151e3	-0.08658197
113	0x3ce731cc	0.028221987
114	0xbd9b20cb	-0.07574614
115	0x3e41e99f	0.18936776
116	0xbdf63388	-0.120215476
117	0xbe75ae71	-0.23992325
118	0xbeea996b	-0.45820174
119	0xbea61228	-0.32435727
120	0x3daa35fc	0.08311078
121	0x3ddfc039	0.109253354
122	0xbcbeee4c	-0.023306988
123	0x3e699317	0.22810017
124	0x3e1d4d36	0.15361485
125	0xbe9ae697	-0.3025405
126	0xbdc7311b	-0.09726163
127	0xbb49659a	-0.0030730725
128	0x3cc3470a	0.023837585
129	0xbeb9be0f	-0.36277816
130	0xbdb8384d	-0.089951135
131	0xbe54478c	-0.20730418
132	0x3d958f4a	0.07302721
133	0x3dfdec3d	0.123985745
134	0x3d3464e1	0.044041518
135	0x3e7dd302	0.24787524
136	0xbe857ed4	-0.26073325
137	0xbaf17c11	-0.0018423815
138	0x3d088757	0.033332195
139	0xbd1af550	-0.037831604
140	0x3e75f8dd	0.24020715
141	0xbe2be29b	-0.16785662
142	0xbe8501af	-0.25977847
143	0xbe8ebc1e	-0.27877897
144	0xbe72d0b0	-0.2371242
145	0x3e3843cb	0.17994611
146	0xbae570b8	-0.0017504906
147	0x3e0ec4bb	0.13942234
148	0x3e62450d	0.22096653
149	0x3e7d43a0	0.24732828
150	0xbcc80668	-0.024417117
151	0x3e80017b	0.2500113
152	0x3b52e275	0.0032178436
153	0xbe383f07	-0.17992793
154	0xbe9f2548	-0.3108313
155	0xbdc98f04	-0.09841731
156	0xbe546fae	-0.20745727
157	0xbefab930	-0.48969412
158	0xbe19a781	-0.15005304
159	0x3e0ffc0b	0.1406099
160	0xbe6311e8	-0.221748
161	0xbe1d1916	-0.15341601
162	0x3d8aa0e5	0.067689694
163	0x3dc2a815	0.09504715
164	0x3e8c7f8e	0.27441067
165	0xbeb31c03	-0.3498231
166	0x3e95236c	0.29128587
167	0x3da6ef91	0.081511624
168	0x3e025aa0	0.12729883
169	0xbb843601	-0.004034758
170	0xbf035c44	-0.5131266
171	0xbbf15bea	-0.0073656933
172	0xbd6b2bfc	-0.057414994
173	0xbccc6c31	-0.024953933
174	0x3c8ff4b9	0.017572748
175	0xbc81bce0	-0.015837133
176	0x3d69a859	0.057045314
177	0xbe10841e	-0.14112899
178	0xbe7324d4	-0.23744518
179	0xbe5407d3	-0.2070611
180	0x3d2ef846	0.04271724
181	0xbedac135	-0.4272553
182	0xbec176b0	-0.37785864
183	0xbddd6adb	-0.10811397
184	0x3e47fa83	0.19529156
185	0xbe9d63a1	-0.30740073
186	0xbe54b5c8	-0.20772469
187	0x3df12d4f	0.1177622
188	0x3e637010	0.22210717
189	0x3e16ab42	0.14713767
190	0xbe859fee	-0.2609858
191	0x3e42c75a	0.19021359
192	0x3e1a44e7	0.15065347
193	0x3b80d709	0.003931884
194	0x3e09787f	0.13424872
195	0xbee99a5c	-0.4562558
196	0xbc89ec77	-0.016836388
197	0x3c13d1ab	0.009022157
198	0xbd421a08	-0.047388107
199	0x3c906c64	0.01762981
200	0x3dceef18	0.10104197
201	0x3d3b9682	0.045797832
202	0x3d3c4100	0.045960426
203	0xbe650d28	-0.223683
204	0xbebfdcdc	-0.3747319
205	0xbcc851d5	-0.024453083
206	0xbea2eab5	-0.31819692
207	0xbe93fb77	-0.2890279
208	0x3caed520	0.02134186
209	0x3d54b0a9	0.05192629
210	0xbe8b8edc	-0.2725743
211	0xbe5ed97e	-0.21762654
212	0x3a8024b4	0.0009776563
213	0x3e8b4b87	0.2720606
214	0x3e2d4e4e	0.16924402
215	0xbea3258b	-0.3186458
216	0x3e46239a	0.19349518
217	0x3e726941	0.23672964
218	0x3d0dbf1e	0.03460609
219	0x3e234c01	0.15946962
220	0xbf18a35e	-0.5962428
221	0xbc919c3c	-0.017774694
222	0xba481edb	-0.00076339924
223	0xbd01be6c	-0.03167574
224	0xbd44015f	-0.04785287
225	0xbd87ea13	-0.06636443
226	0xbc9704c0	-0.018434882
227	0x3d2dc3db	0.04242311
228	0xbe87d1c3	-0.26527223
229	0xbf17ac65	-0.5924743
230	0xbd573069	-0.052536402
231	0x3e401df6	0.18761429
232	0x3d3a3ad0	0.045466244
233	0xbd8f2388	-0.06989199
234	0xbe3275d9	-0.17427768
235	0x3e162eb2	0.1466625
236	0x3d46b210	0.048509657
237	0xbd6de527	-0.058079865
238	0xbe14c8f0	-0.14529777
239	0x3e21b7e0	0.15792799
240	0x3e8f888c	0.28033864
241	0x3cad2bc6	0.021139037
242	0xbe3e37c8	-0.18575966
243	0xbd47e222	-0.04879964
244	0x3e435274	0.19074422
245	0x3e334255	0.17505772
246	0x3de9df7f	0.114195816
247	0x3e9e0ea4	0.30870545
248	0x3e834691	0.25639775
249	0x3eebd729	0.46062592
250	0x3d1627f3	0.036659192
251	0x3dbd709a	0.09249993
252	0x3dcce08d	0.10003767
253	0xbe89921b	-0.26869282
254	0xbf10c442	-0.56549466
255	0xbd3b859d	-0.04578172

bias f4 [64]
0	0xbd943403	-0.07236483
1	0x3da0fcf9	0.07860751
2	0x3cc641c4	0.024201281
3	0x3d84fed5	0.06493918
4	0xbde77e8f	-0.11303436
5	0x3cc1215f	0.023575483
6	0xbcdcf4bf	-0.026972173
7	0x3ded9d86	0.11602311
8	0x3dd583b8	0.10425514
9	0x3d949115	0.07254235
10	0x3d7c2f72	0.061568685
11	0x3d50c4b7	0.050968852
12	0x3b9f7fe6	0.0048675416
13	0xbd7d1d80	-0.06179571
14	0x3d1845f9	0.037176106
15	0x3d7cf7ea	0.061759867
16	0xbdf3a8cf	-0.11897432
17	0x3c284df7	0.0102724945
18	0xbd9dbe41	-0.07702304
19	0x3d9cab36	0.076498434
20	0x3cb1c22a	0.02169903
21	0xbc05a293	-0.0081564365
22	0xbdf2aaec	-0.11849007
23	0x3dba04de	0.090829596
24	0xbdae632c	-0.08515009
25	0x3d8dae2f	0.069179885
26	0xbc0af150	-0.008480385
27	0x3dd6f2b0	0.10495508
28	0x3b49bbc4	0.0030782083
29	0x3d65ff9d	0.056151975
30	0xbd455f6b	-0.0481867
31	0xbd20d45e	-0.03926503
32	0xbcce339a	-0.02517109
33	0xbcb585f7	-0.022158606
34	0x3bb5c7e3	0.00554751
35	0xbda6d0fb	-0.081453286
36	0x3ccab4c2	0.024744395
37	0xbc0a9723	-0.008458885
38	0xbd5016ed	-0.050803114
39	0xbd91eb73	-0.071249865
40	0x3dd863d5	0.105659164
41	0x3dc0f327	0.09421378
42	0xba2d81b1	-0.0006618752
43	0x3d78b34d	0.06071787
44	0x3d10eae7	0.03538027
45	0x3de6dbef	0.11272418
46	0x3ce984bd	0.028505677
47	0xbddccb5a	-0.10780974
48	0xbdc2a2bc	-0.09503695
49	0xbd1765bd	-0.03696226
50	0x3df3f2b9	0.1191153
51	0x3c9f53dd	0.019449169
52	0x3d717866	0.05895271
53	0xbd37b6fc	-0.044852242
54	0x3e094256	0.13404211
55	0xbd071101	-0.0329752
56	0x3c10993d	0.008825597
57	0x3db8fe72	0.090329066
58	0x3d89e001	0.067321785
59	0x3da514a3	0.08060577
60	0xbddc2365	-0.107489385
61	0xbe14d924	-0.14535958
62	0x3e020e63	0.127008
63	0x3d6d73ec	0.05797188

weight f4 [64]
0	0x3f6012c6	0.87528646
1	0x3f48c626	0.7842735
2	0x3fa959e9	1.3230563
3	0x3f1259c1	0.57168204
4	0x3f3bcc4a	0.73358595
5	0x3f984b1f	1.1897925
6	0x3f5fae6a	0.8737551
7	0x3efe0756	0.49614972
8	0x3f48b11a	0.78395236
9	0x3f545819	0.82946926
10	0x3f908d47	1.1293114
11	0x3f79859a	0.97469485
12	0x3f2e4a1b	0.68081826
13	0x3f7b9951	0.9828082
14	0x3f9bdbbd	1.2176434
15	0x3f6c41fb	0.9228818
16	0x3f6ee269	0.93314224
17	0x3f92a37d	1.1456143
18	0x3f8b5e3f	1.0888137
19	0x3f817a42	1.0115435
20	0x3f75a89a	0.9596039
21	0x3f6035c2	0.8758203
22	0x3f554b5d	0.8331812
23	0x3f4f44a6	0.80964124
24	0x3f6b34cb	0.9187743
25	0x3f4b4a4a	0.7941023
26	0x3f92debb	1.1474222
27	0x3f7f0f3b	0.99632615
28	0x3f939775	1.1530596
29	0x3f3d4f82	0.73949444
30	0x3f25d4ee	0.6477803
31	0x3f18e239	0.5972019
32	0x3f67d10b	0.9055335
33	0x3f7f5db5	0.9975236
34	0x3f05b850	0.52234364
35	0x3f3f95b5	0.7483781
36	0x3f5c50e4	0.8606093
37	0x3f856a24	1.0423017
38	0x3f5acf50	0.85472584
39	0x3f55205d	0.8325251
40	0x3f89a483	1.075333
41	0x3fa288a5	1.2697951
42	0x3f7ab69e	0.979349
43	0x3ef2fb76	0.47457474
44	0x3f93040a	1.1485608
45	0x3f87b08b	1.0600752
46	0x3f42b070	0.7605047
47	0x3f700e38	0.93771696
48	0x3f16f80a	0.5897223
49	0x3f682bce	0.9069184
50	0x3f6fb6dd	0.936384
51	0x3f7521f9	0.95754963
52	0x3f9609bd	1.1721722
53	0x3f8bf2da	1.0933487
54	0x3f959816	1.1687038
55	0x3f39eeda	0.72630084
56	0x3f97c134	1.1855836
57	0x3f43e6c2	0.76523983
58	0x3eeb5f0a	0.45970947
59	0x3f5365c7	0.82577175
60	0x3f75d47f	0.9602737
61	0x3f983c39	1.1893378
62	0x3f2711b6	0.652614
63	0x3f3d1067	0.73853153

bias f4 [64]
0	0xbee3bbbc	-0.44479167
1	0xbf13f2fa	-0.5779263
2	0xbf14af66	-0.58080137
3	0xbf4761ed	-0.778838
4	0xbeef7af0	-0.4677348
5	0xbf016171	-0.5053931
6	0xbf0c65d4	-0.5484288
7	0xbeb1d4b2	-0.34732586
8	0xbf1f9aa8	-0.6234536
9	0xbf0d007e	-0.55078876
10	0xbef5c5b9	-0.48002413
11	0xbf13b0a4	-0.5769141
12	0xbf13ecde	-0.57783306
13	0xbefc011b	-0.49219593
14	0xbf1279dd	-0.572172
15	0xbf10951b	-0.56477517
16	0xbefcdc56	-0.49386853
17	0xbf0337af	-0.5125684
18	0xbf196e3c	-0.5993383
19	0xbea4f23b	-0.32216057
20	0xbf19040d	-0.59771806
21	0xbf9fb56e	-1.2477243
22	0xbee2fd06	-0.44333667
23	0xbf010ef7	-0.5041346
24	0xbf057a4e	-0.5213975
25	0xbf41d174	-0.75710225
26	0xbebbcc5e	-0.36679357
27	0xbee9180e	-0.45526165
28	0xbf13cda6	-0.5773567
29	0xbf087884	-0.5330889
30	0xbf734d4c	-0.9503982
31	0xbe9ca175	-0.30591932
32	0xbee9bbb8	-0.4565103
33	0xbeeb581e	-0.45965666
34	0xbf39c80b	-0.72570866
35	0xbf191d50	-0.5981035
36	0xbf069d77	-0.5258402
37	0xbef364a5	-0.47537723
38	0xbefea9b1	-0.4973884
39	0xbed671b1	-0.41883615
40	0xbefd576a	-0.49480754
41	0xbee8e000	-0.45483398
42	0xbf07398c	-0.52822185
43	0xbf1a2214	-0.6020825
44	0xbf22a011	-0.6352549
45	0xbf14be39	-0.58102757
46	0xbef10198	-0.47071528
47	0xbf0f27a0	-0.5591984
48	0xbf579ad2	-0.8422061
49	0xbef42461	-0.47684005
50	0xbf02926f	-0.5100469
51	0xbeffc7a5	-0.49957004
52	0xbef243bb	-0.473173
53	0xbef2dde8	-0.47434926
54	0xbf07b38d	-0.5300835
55	0xbe83ec06	-0.2576601
56	0xbf1326f6	-0.57481325
57	0xbf0085a8	-0.50203943
58	0xbf5d21fc	-0.8637998
59	0xbec7310e	-0.38904613
60	0xbecffbac	-0.40621698
61	0xbf2a2d5d	-0.6647547
62	0xbedb400b	-0.42822298
63	0xbf31685c	-0.69299865

running_mean f4 [64]
0	0xbf393f2d	-0.72362024
1	0xbedd67d7	-0.43243286
2	0xbf089441	-0.5335122
3	0x3ea3b270	0.31972075
4	0xbf8c77c9	-1.0974056
5	0xbf21aa4d	-0.63150483
6	0xbf0b45c9	-0.5440336
7	0xbf012993	-0.5045406
8	0xbea3857f	-0.31937787
9	0xbdaaf65f	-0.08347773
10	0xbf24e8f5	-0.64417964
11	0xbf4efe38	-0.8085666
12	0xbe00cf66	-0.12579116
13	0xbf508cc0	-0.8146477
14	0xbf336bb8	-0.7008624
15	0xbeb442f4	-0.3520733
16	0xbf05519b	-0.52077645
17	0xbefa0eb3	-0.4883934
18	0xbf500f5c	-0.81273437
19	0xbe931ca8	-0.287328
20	0xbee5ef47	-0.44909117
21	0x3e34e9bd	0.17667289
22	0xbec2b310	-0.3802724
23	0xbf152ea2	-0.5827428
24	0xbf6b163e	-0.91830814
25	0x3df1f052	0.118134156
26	0xbed12fe8	-0.40856862
27	0xbf36e87a	-0.7144848
28	0xbf07b7c0	-0.53014755
29	0xbcbcc768	-0.023044303
30	0x3e45b989	0.19309057
31	0xbdc8d7e8	-0.09806806
32	0xbf666650	-0.89999866
33	0xbef94ccc	-0.48691404
34	0x3c0b6e03	0.008510116
35	0x3a8fc87f	0.0010969787
36	0xbf2fd9aa	-0.68691504
37	0xbeb7afb6	-0.35876244
38	0xbf14daa5	-0.58146125
39	0xbebb86c0	-0.36626244
40	0xbf2b7ae0	-0.6698437
41	0xbeec262d	-0.46122876
42	0xbf06961c	-0.525728
43	0x3e955a43	0.29170427
44	0xbf0ab3e6	-0.54180753
45	0xbda1cc1a	-0.079002574
46	0xbeff88a7	-0.49908945
47	0xbed47208	-0.4149325
48	0xbdffee36	-0.12496607
49	0xbecb95c2	-0.39762694
50	0xbf4ac837	-0.79211754
51	0xbeefc139	-0.46827105
52	0xbf14ed5f	-0.581747
53	0xbf49430d	-0.78617936
54	0xbf1ed34c	-0.62041163
55	0xbf081458	-0.5315604
56	0xbf348008	-0.7050786
57	0x3dfe6344	0.12421277
58	0x3f0b11b0	0.54323864
59	0xbe5339ed	-0.20627566
60	0xbf242f1e	-0.64134395
61	0xbf2e074a	-0.6797987
62	0xbe83b95d	-0.25727358
63	0x3dba6f91	0.09103311

running_var f4 [64]
0	0x421b3161	38.79822
1	0x416cc24e	14.797438
2	0x41a11c96	20.138958
3	0x4171c778	15.111198
4	0x425685cd	53.630665
5	0x41aac981	21.34839
6	0x415633a6	13.3876095
7	0x41ef4efb	29.913565
8	0x414b1161	12.691743
9	0x3fddc423	1.7325481
10	0x41efc0c1	29.969118
11	0x423047bb	44.07005
12	0x4058b5bf	3.386093
13	0x4215d629	37.45914
14	0x41c9cac1	25.224
15	0x4110e237	9.055228
16	0x4145458c	12.329479
17	0x41701266	15.004492
18	0x41cc51f5	25.540018
19	0x412a4c74	10.643665
20	0x4125290d	10.322522
21	0x404ab085	3.167024
22	0x40e432b6	7.1311903
23	0x41bde981	23.739016
24	0x421870c9	38.11014
25	0x4008f036	2.1396613
26	0x41334aa8	11.205727
27	0x422714f8	41.770477
28	0x418e94e5	17.822702
29	0x41b2370f	22.276884
30	0x4167e3b2	14.49309
31	0x418f3a15	17.90336
32	0x42227dc5	40.62282
33	0x4172c59d	15.173245
34	0x411b3b80	9.702026
35	0x40971fe0	4.722641
36	0x41d0da41	26.10657
37	0x40f3be58	7.6169853
38	0x417e8e53	15.909747
39	0x410f0132	8.937792
40	0x4206b433	33.675976
41	0x419ab617	19.338911
42	0x4142496e	12.142927
43	0x4143f753	12.247882
44	0x4198dbdd	19.107355
45	0x407487f8	3.8207989
46	0x41614139	14.0784235
47	0x41568157	13.406577
48	0x40bd9b5a	5.925214
49	0x41260d44	10.378239
50	0x4234da52	45.213203
51	0x416cc551	14.798173
52	0x41a033c4	20.025276
53	0x41f240cb	30.281637
54	0x41e7fbfb	28.998037
55	0x4181af99	16.210741
56	0x41c29902	24.32471
57	0x40a3a6b5	5.1141
58	0x415aa476	13.665152
59	0x4083be56	4.1169844
60	0x419b8ba8	19.443192
61	0x418f77af	17.93344
62	0x41291326	10.567175
63	0x40054239	2.082167

weight f4 [50, 64, 5, 5]
0	0x3daf8a06	0.08571248
1	0x3e2e533d	0.1702394
2	0x3e415838	0.18881309
3	0xbe016226	-0.12635097
4	0x3e4c8562	0.19972757
5	0xbcc94d8c	-0.02457311
6	0x3e19e235	0.15027697
7	0x3c37d78c	0.011220824
8	0xbd57facd	-0.052729417
9	0x3d1d2d61	0.038373355
10	0xbe38a156	-0.18030295
11	0xbdf14dff	-0.11782455
12	0xbe31a5dd	-0.17348428
13	0xbcb86fd4	-0.022514261
14	0xbe0a153d	-0.13484664
15	0xbe92862a	-0.28617984
16	0xbe4be0bc	-0.19909948
17	0xbc70f55e	-0.014706938
18	0x3e37466d	0.17897959
19	0xbd22700a	-0.03965763
20	0xbf05c150	-0.52248096
21	0xbe5aab9b	-0.21354525
22	0x3d6567f3	0.056007337
23	0x3d793863	0.06084479
24	0x3d418cf8	0.04725358
25	0xbe9a747d	-0.30166999
26	0xbda59d72	-0.08086671
27	0xbee14527	-0.43998072
28	0xbcb65212	-0.022255931
29	0xbe1745b2	-0.1477268
30	0x3e444b89	0.1916944
31	0x3c6eb1f8	0.014568798
32	0xbd55095d	-0.052010883
33	0xbe90fbec	-0.283172
34	0xbf0cdf46	-0.5502819
35	0xbe6cd7de	-0.23129222
36	0x3df3eaa1	0.11909986
37	0x3d82894a	0.06373842
38	0xbe05d1a1	-0.13068248
39	0xbda4cd86	-0.08047013
40	0x3e1097e9	0.14120449
41	0x3e6b2b62	0.22965768
42	0xbcd869a3	-0.026417559
43	0x3db00951	0.08595527
44	0x3e93c99f	0.28864762
45	0x3ebde4c4	0.37088597
46	0x3e97ae76	0.2962529
47	0x3e857bae	0.26070923
48	0x3dfee833	0.12446632
49	0xbdd78d00	-0.105249405
50	0x3cf4087e	0.029789206
51	0xbd7017d2	-0.058616467
52	0x3e0a1f7b	0.13488571
53	0x3e784e49	0.24248613
54	0x3ec9757d	0.3934745
55	0xbef33930	-0.47504568
56	0x3e6766d2	0.22597817
57	0x3e1208dc	0.14261192
58	0x3d8ec7c8	0.06971699
59	0xbe016c30	-0.12638927
60	0xbe55ccfa	-0.20878974
61	0xbea32673	-0.31865272
62	0xbf087fce	-0.53320014
63	0xbe1eb6e2	-0.15499452
64	0xbdca685e	-0.09883188
65	0xbdf9439d	-0.12171099
66	0xbc56b51d	-0.013104704
67	0x3e240eeb	0.16021316
68	0x3e290c34	0.16508561
69	0x3e52d8b3	0.20590477
70	0x3bc0ef14	0.0058878753
71	0x3da6f6f9	0.08152575
72	0xbd13f6ff	-0.036124226
73	0xbe727431	-0.23677136
74	0xbc93ace2	-0.018026773
75	0xbe1d99ea	-0.15390745
76	0xbeb20a38	-0.3477342
77	0xbe977f1b	-0.2958916
78	0xbec23599	-0.37931517
79	0x3dc75b30	0.097341895
80	0xbda828e2	-0.08210923
81	0x3e21fb79	0.15818585
82	0x3e6af6ae	0.22945663
83	0xbe0bda65	-0.1365753
84	0x3bd78ff4	0.00657844
85	0x3e3100c8	0.17285454
86	0x3e62f80f	0.2216494
87	0x3e216252	0.15760162
88	0xbe49c3d8	-0.19703615
89	0xbddd7f5f	-0.1081531
90	0x3e1df306	0.15424737
91	0x3d0fd753	0.03511746
92	0xbc9f8db4	-0.019476749
93	0xbdca6a3f	-0.09883546
94	0x3e317af7	0.17332064
95	0x3e0a5d6d	0.13512202
96	0x3c2cda62	0.010550113
97	0xbd5230ca	-0.05131606
98	0x3d835515	0.064127125
99	0x3e929f1d	0.2863702
100	0xbda0e84d	-0.07856808
101	0xbe452d3e	-0.1925554
102	0x3a438aef	0.00074593624
103	0x3d91de70	0.07122505
104	0x3e868478	0.2627294
105	0xbed32603	-0.41239938
106	0x3d20d75c	0.039267883
107	0xbe300abc	-0.17191595
108	0x3e12f4f7	0.14351259
109	0xbe009670	-0.12557387
110	0xbeebb465	-0.46036068
111	0xbc0f3884	-0.008741502
112	0xbe9fff5a	-0.31249505
113	0x3e06402a	0.13110414
114	0xbee859d3	-0.4538103
115	0xbed8a017	-0.4230964
116	0xbe7c8c52	-0.24662903
117	0xbe875af8	-0.2643659
118	0xbe790f14	-0.24322158
119	0xbe08373e	-0.13302323
120	0xbca936c9	-0.020656006
121	0xbe0c17e7	-0.13680993
122	0xbe6c98d5	-0.23105176
123	0xbeba2d83	-0.36362848
124	0xbc168284	-0.009186391
125	0xbd4d6495	-0.05014475
126	0xbe637789	-0.22213568
127	0xbec4764f	-0.38371512
128	0xbe935fc2	-0.28783995
129	0xbeb52c2e	-0.3538527
130	0xbd120308	-0.035647422
131	0xbd134439	-0.035953734
132	0x3deceb5f	0.11568331
133	0x3e4ebfe0	0.20190382
134	0x3dffaad0	0.12483752
135	0x3dd3ebef	0.10347735
136	0x3e5a5c18	0.21324193
137	0x3e0181d9	0.12647189
138	0x3e5a57be	0.21322533
139	0x3e66ebf2	0.22550943
140	0x3ea648ec	0.3247751
141	0x3e4abc0e	0.197983
142	0xbea25490	-0.3170514
143	0xbdacb3dd	-0.08432744
144	0xbe824ea2	-0.25450617
145	0x3e8d3181	0.2757683
146	0x3e5e0184	0.21680266
147	0xbe9c8c0d	-0.305756
148	0xbe0b858f	-0.13625167
149	0xbe0f33af	-0.1398456
150	0x3e7bc5c4	0.2458716
151	0x3dc58859	0.09645147
152	0x3e4a7258	0.19770181
153	0x3e452a5d	0.19254442
154	0x3e7481f9	0.23877706
155	0x3d2c92e1	0.042132262
156	0xbb43c937	-0.0029874572
157	0x3e5e4574	0.21706182
158	0x3e9cd708	0.30632806
159	0x3d81ad64	0.063319
160	0xbc37adc1	-0.01121086
161	0xbc5bfb40	-0.013426602
162	0x3ddc4fd4	0.107574135
163	0x3dc3b05a	0.09555121
164	0xbc18a100	-0.009315729
165	0x3e463093	0.19354467
166	0x3e8a9c45	0.2707235
167	0xbe63dac9	-0.22251429
168	0x3d71b8ac	0.059014007
169	0x3e1eaf25	0.154965
170	0x3d6f6544	0.058446184
171	0x3e94ee6e	0.29088157
172	0x3e5e351a	0.21699944
173	0x3e0a1b33	0.13486938
174	0x3cc75496	0.024332326
175	0x3e788056	0.24267706
176	0xbd5fcc12	-0.054637976
177	0x3d55891d	0.052132715
178	0x3de214de	0.11039136
179	0x3ecec0ee	0.4038157
180	0x3d6cfa7e	0.057856075
181	0x3dc61d8b	0.096736036
182	0x3e2085ce	0.15676042
183	0x3e33fbbf	0.17576502
184	0x3e099202	0.13434604
185	0xbcff253f	-0.03114569
186	0x3dea46ff	0.11439323
187	0xbc84f302	-0.016229156
188	0xbe693c22	-0.22776845
189	0xbe411357	-0.18855034
190	0x3d4306cf	0.047613915
191	0xbe12f558	-0.14351404
192	0xbe85e422	-0.26150614
193	0xbe0ad5ee	-0.1355817
194	0x3e25f54d	0.16206856
195	0x3ded26a7	0.11579638
196	0x3df15c9b	0.11785241
197	0x3b9cf81c	0.004790319
198	0x3c8615a3	0.016367739
199	0x3edb1dc6	0.42796153
200	0x3e621f44	0.2208224
201	0xbe3535a9	-0.17696251
202	0xbc8aff8a	-0.016967554
203	0x3d877152	0.06613411
204	0xbd8e3b86	-0.06944947
205	0x3ddde07d	0.10833833
206	0x3e0436a6	0.12911472
207	0x3ded2982	0.115801826
208	0x3e4cd217	0.20002018
209	0xbd0e5fe2	-0.03475941
210	0x3dae139d	0.08499835
211	0x3e574ed2	0.21026161
212	0x3c0a84ee	0.0084545445
213	0xbe052103	-0.13000874
214	0xbdb6f551	-0.08933509
215	0x3e1b562f	0.15169595
216	0x3c663125	0.014049803
217	0xbefc7dd2	-0.49314743
218	0xbeeb9820	-0.460145
219	0xbe2a0b39	-0.16605844
220	0x3d601163	0.05470408
221	0xbcf3cc98	-0.029760644
222	0xbca61f2f	-0.020278541
223	0xbe842a52	-0.25813538
224	0x3a5bcf06	0.0008385036
225	0x3db21630	0.08695638
226	0xbe011b20	-0.12608004
227	0x3d50f755	0.051017124
228	0x3e39dda5	0.18150957
229	0xbe8bd4e2	-0.27310854
230	0xbe867e8a	-0.26268417
231	0x3d66e6fe	0.056372635
232	0xbd08f596	-0.033437334
233	0xbe441a08	-0.19150555
234	0x3e163f83	0.14672665
235	0xbe1ea25e	-0.15491626
236	0x3dfb4f5e	0.122709975
237	0xbdeb5e47	-0.11492591
238	0xbe878b3d	-0.26473418
239	0xbda5561f	-0.08073067
240	0xbe8eddfe	-0.27903742
241	0xbea335ac	-0.31876886
242	0x3e58147f	0.21101569
243	0x3e50c32e	0.20386955
244	0xbe199590	-0.1499846
245	0xbe88db13	-0.2672964
246	0x3b1bb76d	0.0023760453
247	0x3b090efb	0.002091347
248	0x3e94505e	0.28967565
249	0x3c04405b	0.008071984
250	0x3dfb6c3b	0.12276503
251	0x3c8de46c	0.017320834
252	0x3e942ebe	0.2894191
253	0x3db4264c	0.08796367
254	0x3e0f88fb	0.14017098
255	0x3da5f1f7	0.08102792

bias f4 [50]
0	0xbca9964e	-0.020701554
1	0x3c639d9f	0.01389256
2	0xbc5efe85	-0.013610487
3	0xbce292a4	-0.027657814
4	0xbbeb9aa7	-0.007190067
5	0x3c8e3d3c	0.017363183
6	0x3b91e597	0.004452418
7	0x3cc71dc1	0.02430618
8	0x3c0a3e00	0.0084376335
9	0xbbc289d2	-0.0059368396
10	0x3cbd523d	0.023110503
11	0x3cbdd144	0.023171075
12	0xbb88d5de	-0.0041758856
13	0x3c247592	0.010037797
14	0x3c72dc16	0.01482298
15	0xbb947053	-0.0045299917
16	0x3b0e073f	0.00216718
17	0x3bdb4475	0.0066915103
18	0xbce2a2a2	-0.02766544
19	0xbbeb9a1f	-0.0071900035
20	0xbccfd707	-0.025371088
21	0xbcadd464	-0.02121944
22	0xbc840392	-0.016114984
23	0x3c4b4e9c	0.012408879
24	0xbb8537f9	-0.0040655104
25	0x3c3cb1e5	0.011517023
26	0xbc3a2178	-0.011360519
27	0xbcce2ad2	-0.025166903
28	0xbc0d7ea8	-0.008636154
29	0xbbb89112	-0.005632528
30	0xbca65764	-0.020305343
31	0xb9bb05e1	-0.000356718
32	0x3bed5592	0.007242867
33	0x3ac94c10	0.0015357751
34	0xbcd33756	-0.025783222
35	0x3b490050	0.0030670352
36	0xbcc44516	-0.023958724
37	0xbbb2a28d	-0.0054515065
38	0x3bd0f7b1	0.0063771834
39	0xbc0bde0e	-0.008536829
40	0xbcab6068	-0.020919994
41	0xbc985dc5	-0.0185994
42	0xbbae4e9c	-0.0053194296
43	0xbc35a9fa	-0.011087889
44	0x3c709d80	0.014685988
45	0x3cabf6aa	0.020991642
46	0xbca27f20	-0.019836009
47	0x3c1f5c59	0.009726607
48	0x3c195e64	0.009360883
49	0xbcba6019	-0.022750901

weight f4 [50]
0	0x3f444b5e	0.766775
1	0x3f4939cb	0.7860381
2	0x3f2d68f2	0.6773826
3	0x3f368bb6	0.7130693
4	0x3f369151	0.71315485
5	0x3f49e6f8	0.78868055
6	0x3f531378	0.8245158
7	0x3f68fb40	0.9100838
8	0x3f5fb850	0.87390614
9	0x3f3d3bb7	0.7391924
10	0x3f6d0575	0.9258645
11	0x3f3f124f	0.7463731
12	0x3f4950e8	0.7863908
13	0x3f474d41	0.77852255
14	0x3f60a7f3	0.8775627
15	0x3f5163f1	0.81793123
16	0x3f5a87c6	0.85363424
17	0x3f6d76b2	0.9275924
18	0x3f7426e6	0.95371854
19	0x3f554bea	0.8331896
20	0x3f374f20	0.7160511
21	0x3f4197b6	0.7562212
22	0x3f5a0cd9	0.85175854
23	0x3f40260b	0.7505805
24	0x3f3e9604	0.74447656
25	0x3f4ae642	0.79257596
26	0x3f43f73d	0.7654913
27	0x3f643c5a	0.8915459
28	0x3f574b18	0.8409896
29	0x3f3a7e58	0.72849035
30	0x3f53abba	0.8268391
31	0x3f6ead0a	0.93232787
32	0x3f550d6e	0.8322362
33	0x3f525f7b	0.8217694
34	0x3f43c01c	0.7646501
35	0x3f56ee42	0.839573
36	0x3f40dfad	0.753413
37	0x3f4a9f53	0.7914936
38	0x3f51b917	0.8192305
39	0x3f5e018c	0.8672111
40	0x3f522a42	0.8209573
41	0x3f440700	0.7657318
42	0x3f42d289	0.761025
43	0x3f5f9d3d	0.873493
44	0x3f400203	0.7500307
45	0x3f675ad8	0.9037299
46	0x3f5813f9	0.84405476
47	0x3f375ffa	0.71630824
48	0x3f6d27b0	0.92638683
49	0x3f76b7ec	0.9637439

bias f4 [50]
0	0xbf257403	-0.64630145
1	0xbf240d5a	-0.6408287
2	0xbf35cb4f	-0.7101335
3	0xbf235cc3	-0.6381342
4	0xbf2c942a	-0.6741358
5	0xbf3dedb8	-0.74190855
6	0xbf4c4d83	-0.79805773
7	0xbf288acb	-0.6583678
8	0xbf3e2316	-0.74272287
9	0xbf34586b	-0.70447415
10	0xbf54ce1c	-0.83127
11	0xbf46ae13	-0.77609366
12	0xbf287f4c	-0.6581924
13	0xbf58b14d	-0.8464554
14	0xbf41593b	-0.7552678
15	0xbf394d04	-0.7238314
16	0xbf2ec5c5	-0.6827052
17	0xbf633ad1	-0.8876162
18	0xbf42b3d6	-0.7605566
19	0xbf3bf213	-0.7341625
20	0xbf217c82	-0.6308061
21	0xbf20428e	-0.62601554
22	0xbf2e8d23	-0.6818411
23	0xbf37b2c2	-0.7175714
24	0xbf33c8e0	-0.70228386
25	0xbf589ceb	-0.8461444
26	0xbf1b8d22	-0.60762227
27	0xbf2fb33d	-0.6863287
28	0xbf287d7c	-0.65816474
29	0xbf2e53fd	-0.68096906
30	0xbf0c4c19	-0.54803616
31	0xbf43e490	-0.76520634
32	0xbf4d6774	-0.8023598
33	0xbf2a7627	-0.66586536
34	0xbf5b172d	-0.8558224
35	0xbf54a782	-0.83068097
36	0xbf2aa35c	-0.66655517
37	0xbf3e4356	-0.74321496
38	0xbf2dc7af	-0.6788282
39	0xbf29c3d9	-0.66314465
40	0xbf4e3a11	-0.8055735
41	0xbf0ead26	-0.55732954
42	0xbf5e7e8c	-0.86911845
43	0xbf62d40a	-0.88604796
44	0xbf46e52d	-0.77693444
45	0xbf46b9f6	-0.77627504
46	0xbf62daf6	-0.8861536
47	0xbf296938	-0.66176176
48	0xbf2121b4	-0.6294205
49	0xbf4ab773	-0.7918617

running_mean f4 [50]
0	0xc0b53d1b	-5.663709
1	0x3fac6850	1.3469334
2	0xc0972693	-4.723459
3	0xc04f7d3d	-3.242019
4	0xc047cb28	-3.1217747
5	0xc0ab4510	-5.3521805
6	0xbf8f27b6	-1.1183994
7	0xc0c675c3	-6.201875
8	0xc0b421ff	-5.62915
9	0xc0c1152a	-6.0338335
10	0xc0a43585	-5.131533
11	0xc04bdb26	-3.1852508
12	0xbf037cf4	-0.5136254
13	0xc05e54ce	-3.473926
14	0xc0e00cb5	-7.001551
15	0xc094349a	-4.631421
16	0xc08656c6	-4.1980925
17	0xc0cc486c	-6.3838406
18	0xc0829421	-4.080582
19	0xbfc4ea81	-1.5384065
20	0xc0a21735	-5.065333
21	0xc0ddbfe9	-6.9296765
22	0x3fcc87b1	1.597891
23	0xc0d8e12f	-6.777488
24	0xc09e606b	-4.94927
25	0xc0ae1d42	-5.4410715
26	0x3ff2ba97	1.8963193
27	0xc01af4d7	-2.4211938
28	0xc0621317	-3.5324152
29	0xc023f15f	-2.5616071
30	0x3f557133	0.83375853
31	0xc0c3804f	-6.1094127
32	0xc09684bf	-4.7037044
33	0xc04d890c	-3.2114897
34	0xc0bac0ee	-5.836051
35	0xc0d50772	-6.657159
36	0xc05281dc	-3.289176
37	0xc024113e	-2.5635524
38	0xc080fe4c	-4.031042
39	0xc0caa327	-6.332416
40	0xc030e35f	-2.7638776
41	0xbfd97447	-1.698861
42	0xc0caf74b	-6.342687
43	0xc0bc25d0	-5.879616
44	0xbff93dbe	-1.9471967
45	0xc09e3eb9	-4.9451566
46	0xc0d16d02	-6.5445566
47	0xc0be6090	-5.9492874
48	0xc09745bf	-4.727264
49	0xc0b2cfd3	-5.587869

running_var f4 [50]
0	0x420e9a5e	35.65075
1	0x4209a971	34.41547
2	0x41cce9a7	25.614088
3	0x41d3755f	26.43231
4	0x41d913cc	27.134666
5	0x41f50d52	30.631504
6	0x41fd7ac3	31.684942
7	0x423e8d78	47.638153
8	0x41ea5a2f	29.294035
9	0x41cfa8c4	25.957405
10	0x41e0c6af	28.097013
11	0x41f3968f	30.448515
12	0x4221163a	40.271706
13	0x41e62972	28.770237
14	0x41c50174	24.62571
15	0x421d84fa	39.37986
16	0x422a4487	42.56692
17	0x41e5cdba	28.725452
18	0x41ab68df	21.426207
19	0x421bbadf	38.93249
20	0x41f8686c	31.050987
21	0x41a94103	21.156744
22	0x422b74e0	42.864136
23	0x41dc7870	27.558807
24	0x41d90a32	27.129978
25	0x41e3239b	28.392385
26	0x41e38522	28.440006
27	0x41d3f6be	26.49548
28	0x42198f88	38.390167
29	0x42105df8	36.091766
30	0x4215f347	37.487576
31	0x42106f31	36.108585
32	0x41f36668	30.425003
33	0x42040565	33.00527
34	0x41ed2d44	29.647102
35	0x41eeafad	29.83578
36	0x41d043d1	26.033113
37	0x4203a13e	32.907463
38	0x4214d15f	37.204464
39	0x41fd547a	31.666248
40	0x41b3883a	22.441517
41	0x4208d00d	34.203175
42	0x41a95ec5	21.171274
43	0x41a70f9c	20.882622
44	0x41a518cc	20.637108
45	0x42496088	50.34427
46	0x41cc0074	25.500221
47	0x420a460c	34.568405
48	0x4227d813	41.96101
49	0x421cb1c7	39.17361

weight f4 [100, 1250]
0	0x3d016f2f	0.031600174
1	0x3ec3d844	0.38250935
2	0xbb703721	-0.0036653953
3	0xbe567933	-0.20944671
4	0xbeb90666	-0.36137694
5	0x3cccc528	0.024996355
6	0xbda8df9c	-0.08245775
7	0xbe024d9b	-0.12724917
8	0x3ea786e9	0.32720116
9	0x3cd8ccb9	0.026464807
10	0x3ca0efa1	0.019645514
11	0xbded79d6	-0.11595504
12	0xbd59abc8	-0.05314234
13	0x3dc36657	0.09541004
14	0x3e115d6c	0.14195794
15	0x3d9c5732	0.07633819
16	0x3cc039ea	0.023465116
17	0x3e1f1b38	0.15537727
18	0xbd1e89c6	-0.03870561
19	0x3dfdf356	0.12399928
20	0x3e1bc6fd	0.15212627
21	0xbd677eb3	-0.056517314
22	0xbe469f06	-0.193966
23	0xbe933788	-0.28753304
24	0xbefb6b0e	-0.49105114
25	0x3de9140f	0.11380779
26	0x3df7ae48	0.120937884
27	0x3e34684c	0.17617911
28	0x3e31efb6	0.17376599
29	0x3e8f0f89	0.2794154
30	0x3da9b8a5	0.08287171
31	0x3e09e1b3	0.13465004
32	0xbd891945	-0.06694273
33	0xbdc4798c	-0.09593496
34	0xbe4b6d83	-0.19865994
35	0x3e18791a	0.14889947
36	0xbe1a6a3f	-0.15079592
37	0x3e1575ed	0.14595766
38	0xbd8026d7	-0.06257408
39	0xbed6a8e8	-0.4192574
40	0xbe02b3df	-0.12763928
41	0x3e59d41e	0.21272323
42	0xbc8ac64d	-0.01694026
43	0xbd9b0175	-0.07568637
44	0xbdab9105	-0.0837727
45	0xbddd26c2	-0.10798408
46	0xbe10df54	-0.14147693
47	0xbc968d6b	-0.01837798
48	0x3e627483	0.22114758
49	0xbdf281a4	-0.11841133
50	0x3e457e34	0.19286424
51	0xbe436ba2	-0.19084027
52	0xbeac3c00	-0.33639526
53	0xbe5b001b	-0.21386759
54	0x3ddc4da3	0.107569955
55	0xbd7a5636	-0.061117373
56	0xbdd75013	-0.1051332
57	0xbe67186f	-0.22567914
58	0xbedb683f	-0.4285297
59	0x3d0ae503	0.03390981
60	0x3e2e87c6	0.17043981
61	0xbe78f5f4	-0.24312574
62	0x3e85f786	0.26165408
63	0x3d822eaa	0.06356557
64	0x3e72078d	0.23635693
65	0xbd1ac0d5	-0.037781555
66	0x39aecd27	0.00033340717
67	0x3e25bc59	0.1618513
68	0x3e32639b	0.17420809
69	0x3e85f3b9	0.26162508
70	0x3c636129	0.013878145
71	0xbdc71a33	-0.09721794
72	0xbdef3f69	-0.116820164
73	0xbe1993a1	-0.14997722
74	0xbd9c359d	-0.076274134
75	0x3f1b3056	0.6062063
76	0xbc5c6e12	-0.013453977
77	0xbe523288	-0.20527089
78	0xbd8b12d2	-0.06790699
79	0x3ca747ab	0.020419916
80	0x3e1e4b4f	0.15458415
81	0xbe8dabab	-0.27670035
82	0xbea91a07	-0.3302767
83	0xbbd5886c	-0.006516507
84	0x3c0919cf	0.00836797
85	0x3cfe7f8f	0.031066684
86	0x3dd57715	0.10423104
87	0xbe53d4fa	-0.20686713
88	0xbdb68c37	-0.089134626
89	0xbd38fda2	-0.045163758
90	0x3e868a75	0.2627751
91	0xbd580bad	-0.05274551
92	0xbd4bd7d1	-0.049766365
93	0x3cbbb7a1	0.02291471
94	0x3e4d7a41	0.20066167
95	0x3d8ec24a	0.069706514
96	0xbeb91e23	-0.36155805
97	0xbf1ed57a	-0.6204449
98	0xbee89aa3	-0.45430478
99	0xbe67c2e9	-0.22632946
100	0x3e3ed6d7	0.18636642
101	0xbb3d5dc6	-0.0028895005
102	0xbe1c4ad2	-0.15262917
103	0x3d3c9231	0.046037856
104	0x3e4938cb	0.19650571
105	0x3df2d2bb	0.118566
106	0xbe265452	-0.16243103
107	0x3e545b72	0.20738009
108	0x3e7c998d	0.2466795
109	0x3cc35ad8	0.023847029
110	0x3d0a8aa2	0.033823617
111	0xbe43271f	-0.19057892
112	0xbd1f8fa7	-0.038955357
113	0x3e6cbacb	0.23118131
114	0x3e157186	0.14594087
115	0x3db7582b	0.089523636
116	0xbe2bd847	-0.16781722
117	0xbebe54ef	-0.37174174
118	0x3e1442bc	0.14478582
119	0x3d6ce38f	0.057834204
120	0xbe96a850	-0.29425287
121	0xbe7d6845	-0.24746807
122	0xbc6ceeb3	-0.014461207
123	0x3dbdaf87	0.09261995
124	0x3e6c1610	0.23055291
125	0x3e8ec7ce	0.27886814
126	0x3e4c0477	0.19923578
127	0xbe403349	-0.18769564
128	0xbdaaf59f	-0.0834763
129	0xbe847057	-0.25866958
130	0x3ea3af80	0.31969833
131	0x3e8e977d	0.2784995
132	0xbe005acf	-0.1253464
133	0x3e892a44	0.2679006
134	0xbee7f8af	-0.45306918
135	0x3e08963d	0.13338561
136	0x3e0efd73	0.1396387
137	0xbbfc4d30	-0.007699631
138	0x3e212e6d	0.15740366
139	0xbe52e07e	-0.2059345
140	0x3e7446aa	0.23855081
141	0x3b9355cc	0.004496312
142	0x3d9871bc	0.07443568
143	0x3cb183a1	0.02166921
144	0xbb515da5	-0.0031946686
145	0x3d9ecce1	0.07753921
146	0xbefdccb1	-0.4957023
147	0xbe5fc8c3	-0.21853928
148	0x3d5a832a	0.053347744
149	0xbe0fed7a	-0.14055434
150	0x3d847d5c	0.06469223
151	0x3e2119c8	0.15732491
152	0xbe4dd07d	-0.20099063
153	0xbe85c05d	-0.26123324
154	0x3d870ca9	0.065942116
155	0xbdca6f17	-0.0988447
156	0xbdf0b955	-0.11754099
157	0x3e6fa429	0.23402466
158	0x3ebf64ba	0.37381536
159	0x3eb54c3d	0.35409728
160	0xbe6c7c66	-0.23094329
161	0xbdf5b9c6	-0.11998324
162	0xbe66085a	-0.22464123
163	0x3dc85134	0.09781113
164	0xbdb55778	-0.08854574
165	0x3e2eb37e	0.17060658
166	0xbe7c4f39	-0.24639596
167	0x3e152148	0.14563477
168	0x3e3bd57b	0.18343155
169	0xbed602b2	-0.4179893
170	0xbdba33f9	-0.09091944
171	0xbe85db76	-0.26143998
172	0x3e86fa26	0.26362723
173	0xbe4cd494	-0.20002967
174	0xbe37cdbe	-0.17949578
175	0xbe061268	-0.13092959
176	0xbe1704aa	-0.14747873
177	0x3e2e8ef6	0.17046723
178	0xbc82b977	-0.015957577
179	0x3e6c599e	0.23081061
180	0xbdc7d769	-0.09757883
181	0xbe9769e1	-0.29572967
182	0xbdc162de	-0.094426855
183	0xbd97ad6d	-0.07406125
184	0x3e77e22c	0.24207371
185	0xbe52b39a	-0.20576325
186	0x3cc906d5	0.02453939
187	0x3dc0060e	0.09376155
188	0xbee0d9d7	-0.439162
189	0xbdf616b5	-0.1201605
190	0xbe03111d	-0.12799497
191	0x3dab8c0a	0.0837632
192	0x3d78b888	0.060722858
193	0xbe966b4d	-0.2937874
194	0xbd4b04a0	-0.049564958
195	0x3e0e66f5	0.13906462
196	0xbe34b412	-0.17646816
197	0xbd13c5b5	-0.03607722
198	0x3d69b8f1	0.05706114
199	0x3c921747	0.017833365
200	0xbe174a97	-0.14774548
201	0xbe581485	-0.21101578
202	0x3ec2505d	0.37951937
203	0x3e73604b	0.23767202
204	0xbe2f8990	-0.1714232
205	0xbd10fec0	-0.0353992
206	0xbdf2ecc3	-0.11861565
207	0x3de23136	0.110445425
208	0xbe39af71	-0.18133332
209	0xbe4b3d97	-0.19847713
210	0xbc38205b	-0.011238183
211	0xbe2c0066	-0.16797027
212	0x3d7421ce	0.05960255
213	0x3d8274b3	0.06369915
214	0x3d1b845d	0.03796803
215	0x3c32d5d4	0.010915238
216	0xbe38d4a1	-0.18049861
217	0xbe666832	-0.22500685
218	0x3d90787a	0.07054229
219	0x3e1efb38	0.1552552
220	0x3e160538	0.14650428
221	0x3e7516ca	0.23934475
222	0x3de86801	0.11347962
223	0x3dc8459b	0.09778901
224	0x3d34e4dd	0.044163574
225	0x3ec444a8	0.3833363
226	0x3e54d313	0.20783643
227	0x3e012c14	0.1261447
228	0xbc9522f8	-0.018205151
229	0x3dd6772b	0.10471948
230	0x3e8bfe56	0.2734248
231	0x3d24c1ed	0.040224005
232	0x3d302de9	0.043012533
233	0x3e9208ed	0.28522435
234	0x3e323877	0.17404352
235	0xbdb57149	-0.08859498
236	0xbc864d6a	-0.016394336
237	0xbd456bf6	-0.048198663
238	0x3eb7e040	0.35913277
239	0x3e45961f	0.19295548
240	0xbc068fb6	-0.008212974
241	0xbae6e28b	-0.0017615122
242	0xbe74c980	-0.23904991
243	0xbdad34cb	-0.08457335
244	0xbd8b50e9	-0.06802542
245	0xbe724b53	-0.23661546
246	0x3d9fb808	0.07798773
247	0xbe05c0e1	-0.13061859
248	0xbebdd6b4	-0.37077868
249	0xbebfba0b	-0.37446627
250	0xbf046e52	-0.51730835
251	0x3d00583a	0.03133414
252	0x3e294204	0.16529089
253	0x3e2da635	0.16957934
254	0xbe319a0b	-0.17343919
255	0xbe973694	-0.29533827

bias f4 [100]
0	0x3c19e1a9	0.0093921805
1	0xb9adcd69	-0.00033150174
2	0xbccabf2e	-0.024749365
3	0xbc6d9056	-0.014499744
4	0x3ce26f69	0.027641015
5	0x3c29c4a1	0.010361821
6	0xbc8ba0b9	-0.017044412
7	0x3b7e7dce	0.003883231
8	0xbb28b30a	-0.0025741481
9	0xbb6ced77	-0.0036152282
10	0x3bdaa027	0.0066719237
11	0x3c887a61	0.016659917
12	0xbcca5d79	-0.024702774
13	0xba8899a7	-0.0010421769
14	0xbc12c2c9	-0.008957573
15	0x3c9641ac	0.018341862
16	0xbca0b9ba	-0.019619811
17	0x3c8b2a7e	0.016988035
18	0x3cb03766	0.021510791
19	0x3bea0867	0.007142115
20	0xbc6ab949	-0.014326402
21	0x3bcaae59	0.0061853346
22	0xbb9c926e	-0.004778198
23	0xba61672f	-0.00085984444
24	0xba1cd7c7	-0.0005983081
25	0x3c49aa9a	0.012308741
26	0xbcb43e1d	-0.022002274
27	0x3c84d3cf	0.01621428
28	0x3c5adae1	0.013357849
29	0xbcc419e1	-0.023938121
30	0xbc7a9a1d	-0.0152955325
31	0x3cf99c4e	0.03047004
32	0xbc96f51d	-0.018427426
33	0x3c128253	0.0089422045
34	0xbcf12353	-0.02943579
35	0xbbe99205	-0.0071280026
36	0x3c6f9b10	0.014624372
37	0xbc572fd0	-0.013133958
38	0x3c9a0971	0.01880333
39	0xbc6bf2f3	-0.014401185
40	0x3cddebfb	0.027090063
41	0xba6e1ebf	-0.0009083561
42	0xbbde1bfd	-0.006778239
43	0xbc70dee5	-0.01470158
44	0xbb7ffd56	-0.0039060912
45	0xbc655db4	-0.013999391
46	0x3cbc5eba	0.022994388
47	0xbcc0da77	-0.023541672
48	0x3c8e3e49	0.017363684
49	0x3cd2c902	0.025730614
50	0x3c5d8f11	0.013522879
51	0xbc7be116	-0.015373489
52	0xbc00a294	-0.007851262
53	0xbc207bd4	-0.009795148
54	0xbc94b1fd	-0.018151278
55	0xbb2255e7	-0.002477044
56	0x3c3b9ed8	0.0114514455
57	0xbcb4a4d6	-0.022051256
58	0xbc201865	-0.009771441
59	0x3c6521c5	0.013985102
60	0xbcbe6799	-0.023242759
61	0xbcba634e	-0.02275243
62	0xbc98fd7e	-0.018675562
63	0x3c398b5d	0.011324731
64	0xbce56778	-0.02800344
65	0x3c463f94	0.012100119
66	0x3cc1c253	0.023652231
67	0xbcafc4ed	-0.021456206
68	0x3c832a4d	0.016011382
69	0x3c327e6c	0.010894399
70	0x3b088a26	0.0020834296
71	0x3c3634b5	0.011120965
72	0xbc6d0648	-0.01446683
73	0x3cd2eb93	0.025747096
74	0xbc21d53e	-0.009877501
75	0x3bfeb4fd	0.0077730403
76	0xbcd46d20	-0.025930941
77	0x3cec3a6d	0.028836453
78	0xbc20e0df	-0.009819238
79	0xbc0c2f47	-0.008556194
80	0x3c97d33a	0.018533338
81	0x3a9f5e13	0.0012158774
82	0xba72e90c	-0.0009266294
83	0x3caacfbd	0.02085101
84	0x3c779c2a	0.015112916
85	0x3baa0bd0	0.0051893964
86	0x3cbf424a	0.023347039
87	0xbcb0ff47	-0.0216061
88	0xbc965103	-0.018349176
89	0x3b4daa0a	0.0031381869
90	0x3c51b486	0.012799388
91	0xbcad0456	-0.021120232
92	0xbb2b2761	-0.0026116
93	0x3b869086	0.004106584
94	0xb8af4c1b	-8.358826e-05
95	0x3cd9047a	0.026491392
96	0xbbd800da	-0.0065918984
97	0x3a96b252	0.0011497235
98	0xbcf3816c	-0.0297248
99	0x3c7cd589	0.01543177

weight f4 [100]
0	0x3f7a5813	0.9779064
1	0x3f83fbef	1.0311259
2	0x3f5c9c8e	0.86176383
3	0x3f832545	1.0245749
4	0x3f72323e	0.94607913
5	0x3f83b4d4	1.0289559
6	0x3f6192c7	0.8811459
7	0x3f6d5adb	0.9271676
8	0x3f79eb6d	0.97624856
9	0x3f73af62	0.9518949
10	0x3f86ff18	1.0546598
11	0x3f789bbe	0.97112644
12	0x3f6d54d7	0.9270758
13	0x3f90363e	1.1266553
14	0x3f6b323e	0.9187354
15	0x3f815788	1.0104837
16	0x3f781584	0.9690783
17	0x3f666695	0.9000028
18	0x3f6292f7	0.885055
19	0x3f6f4426	0.9346336
20	0x3f7c3ab0	0.9852705
21	0x3f5ee20b	0.87063664
22	0x3f82fcd0	1.0233402
23	0x3f7a73df	0.97833055
24	0x3f83805f	1.0273551
25	0x3f7af062	0.98023045
26	0x3f80f490	1.0074635
27	0x3f810dcd	1.0082337
28	0x3f81f716	1.015353
29	0x3f82a98d	1.0207993
30	0x3f77d5b4	0.9681046
31	0x3f86cca3	1.05312
32	0x3f7ff0f1	0.9997702
33	0x3f7af3f5	0.980285
34	0x3f659953	0.8968708
35	0x3f6f58bd	0.9349478
36	0x3f6b1d0d	0.918412
37	0x3f777dbe	0.9667624
38	0x3f688e7a	0.908424
39	0x3f7a7f57	0.97850555
40	0x3f6dba30	0.92862225
41	0x3f6b9cd1	0.9203616
42	0x3f74c5a6	0.9561409
43	0x3f668a89	0.9005514
44	0x3f74d9e6	0.95644987
45	0x3f8384bd	1.0274884
46	0x3f75ec88	0.96064043
47	0x3f6b5afd	0.9193571
48	0x3f679dbf	0.90475076
49	0x3f6d8899	0.92786556
50	0x3f75bd9f	0.95992464
51	0x3f7ee2ec	0.99565005
52	0x3f7c8b4a	0.9865004
53	0x3f8374d2	1.0270026
54	0x3f6f44fd	0.9346464
55	0x3f5e0245	0.86722213
56	0x3f6c74b1	0.92365557
57	0x3f76a61a	0.963472
58	0x3f7b0c6d	0.98065835
59	0x3f80699d	1.0032231
60	0x3f80d0f4	1.0063767
61	0x3f77c8d4	0.96790814
62	0x3f71f0dc	0.9450815
63	0x3f7b32f0	0.981246
64	0x3f7abc81	0.97943884
65	0x3f635e11	0.8881541
66	0x3f712d36	0.9420961
67	0x3f76a8d3	0.96351355
68	0x3f735b75	0.9506143
69	0x3f829e86	1.0204628
70	0x3f66f871	0.9022284
71	0x3f77c169	0.96779495
72	0x3f77515a	0.9660851
73	0x3f7c5e70	0.985816
74	0x3f75b979	0.95986134
75	0x3f814762	1.0099909
76	0x3f709fad	0.93993646
77	0x3f814eed	1.0102211
78	0x3f68e533	0.9097473
79	0x3f6e5f9e	0.9311465
80	0x3f701bfa	0.9379269
81	0x3f61f74a	0.8826796
82	0x3f7711f3	0.96511763
83	0x3f69d41b	0.9133927
84	0x3f7331f0	0.94998074
85	0x3f75178c	0.95739055
86	0x3f85c2b3	1.0450042
87	0x3f68b43b	0.9090001
88	0x3f86c455	1.0528666
89	0x3f71514d	0.9426468
90	0x3f8469c2	1.0344775
91	0x3f7dccd1	0.9914065
92	0x3f66206b	0.89893216
93	0x3f62990a	0.8851477
94	0x3f7c50fd	0.9856108
95	0x3f6b2379	0.91851
96	0x3f70151b	0.93782204
97	0x3f729f01	0.9477387
98	0x3f87e7e1	1.0617639
99	0x3f83858d	1.0275131

bias f4 [100]
0	0xbe47382d	-0.19455023
1	0xbeb25347	-0.3482916
2	0xbdbda661	-0.0926025
3	0xbe7c3b92	-0.246321
4	0xbef184d1	-0.47171643
5	0xbee2b2c6	-0.44277018
6	0xbeb02161	-0.34400466
7	0xbf02734d	-0.50957185
8	0xbe86ab71	-0.26302674
9	0xbee2da9a	-0.44307405
10	0xbedae90e	-0.42755932
11	0xbededd08	-0.43528008
12	0xbe426e2f	-0.18987344
13	0xbe8b55f4	-0.27214015
14	0xbe5eee4f	-0.21770595
15	0xbee9aa58	-0.45637774
16	0xbeccf753	-0.40032443
17	0xbe94dbb5	-0.29073873
18	0xbefafccd	-0.49020997
19	0xbdda9298	-0.10672492
20	0xbe81393a	-0.25238973
21	0xbef686f0	-0.48149824
22	0xbee8c467	-0.45462343
23	0xbeb6b3e9	-0.35684136
24	0xbe5f5a3c	-0.21811765
25	0xbe2559ca	-0.16147533
26	0xbedc13eb	-0.42983946
27	0xbef61bf7	-0.4806821
28	0xbf00b2df	-0.50272936
29	0xbeee9862	-0.46600634
30	0xbe2deae7	-0.1698414
31	0xbedf8449	-0.43655613
32	0xbea21fd9	-0.31664923
33	0xbe9de9d7	-0.30842468
34	0xbe7dc5f5	-0.24782546
35	0xbf0682ba	-0.5254322
36	0xbee4f6ed	-0.4471964
37	0xbe871862	-0.2638579
38	0xbe69edd7	-0.22844635
39	0xbddc1927	-0.10746985
40	0xbecc263c	-0.3987292
41	0xbec813ab	-0.39077505
42	0xbe8f2332	-0.2795654
43	0xbee2808e	-0.44238704
44	0xbe526059	-0.20544566
45	0xbe932360	-0.28737926
46	0xbe84d862	-0.25946337
47	0xbe3c528d	-0.18390866
48	0xbef08577	-0.46976826
49	0xbe19fd4b	-0.1503803
50	0xbeb23144	-0.34803212
51	0xbedbb35b	-0.42910275
52	0xbeb81753	-0.35955295
53	0xbe351d07	-0.17686854
54	0xbeb67a71	-0.3564029
55	0xbe9753d9	-0.29556158
56	0xbef4b92b	-0.47797522
57	0xbeb14b64	-0.3462783
58	0xbe63d6e4	-0.22249943
59	0xbebec027	-0.37255976
60	0xbe6cacfe	-0.23112866
61	0xbee266ce	-0.4421906
62	0xbf018008	-0.50585985
63	0xbede40e7	-0.43408892
64	0xbe13c275	-0.14429648
65	0xbf013373	-0.5046913
66	0xbe8f2eb0	-0.27965307
67	0xbeaeb9b5	-0.34126058
68	0xbed13844	-0.4086324
69	0xbe8db79d	-0.27679148
70	0xbe134f05	-0.14385612
71	0xbe8e60c7	-0.2780821
72	0xbea96789	-0.33086804
73	0xbe1b3aab	-0.15159099
74	0xbec6b1be	-0.38807482
75	0xbe4ed346	-0.20197782
76	0xbeaebab4	-0.34126818
77	0xbe885485	-0.26626983
78	0xbe89f62d	-0.2694563
79	0xbe518c5f	-0.20463704
80	0xbe0f8a5b	-0.14017622
81	0xbe6f0e08	-0.23345196
82	0xbe8d63cf	-0.2761521
83	0xbe826bba	-0.25472814
84	0xbee0e4c4	-0.43924534
85	0xbeac97b6	-0.33709496
86	0xbed105c3	-0.40824708
87	0xbe3fbb40	-0.18723774
88	0xbe939282	-0.28822714
89	0xbe7326ba	-0.23745242
90	0xbeb9d279	-0.3629339
91	0xbf0c5e04	-0.54830956
92	0xbee54cea	-0.44785243
93	0xbea983e3	-0.33108434
94	0xbed1e64d	-0.40996018
95	0xbedf86d4	-0.43657553
96	0xbeb111af	-0.34583804
97	0xbf02b813	-0.51062125
98	0xbe9bd752	-0.30437714
99	0xbf05948e	-0.521798

running_mean f4 [100]
0	0xbff70824	-1.9299359
1	0xc067f1be	-3.6241298
2	0xc028be67	-2.6366212
3	0xc009524b	-2.1456478
4	0xc01a4158	-2.4102383
5	0xc0b6cbb0	-5.712364
6	0xbf7e092f	-0.99232763
7	0xc09cf69a	-4.9051027
8	0xc08044cb	-4.0083976
9	0xc0927d73	-4.5778136
10	0xc0b0cc2f	-5.5249248
11	0xc020b5a7	-2.5110872
12	0xbe8d3962	-0.27582842
13	0xc05377c5	-3.3041852
14	0xc03e83dc	-2.976798
15	0xc0c7ce28	-6.2439156
16	0xc0d3dfae	-6.6210546
17	0xbf0434e4	-0.51643205
18	0xc03810d2	-2.8760266
19	0x3efa3fcb	0.48876795
20	0xc0af7b3e	-5.483794
21	0xc08c0de2	-4.3766947
22	0xc0de6ed1	-6.9510274
23	0xc063faaf	-3.5621755
24	0x3f78953d	0.9710272
25	0xbe3eb311	-0.18622996
26	0xc064190f	-3.5640295
27	0xc0bd0839	-5.9072537
28	0xc095f334	-4.685938
29	0xc0d1df72	-6.558526
30	0xc0355386	-2.8332229
31	0xc07a7f2f	-3.9140127
32	0xc08ea3bb	-4.4574866
33	0xc0bf8dad	-5.9860444
34	0xbfbf3b0e	-1.4939897
35	0xc0f43f26	-7.6327085
36	0xc051c101	-3.277405
37	0xc05092d7	-3.2589624
38	0xbec3071f	-0.3809137
39	0xbf0ff19d	-0.5622805
40	0xc02c62d5	-2.6935322
41	0xc0ba44e9	-5.820912
42	0xc02cc3c1	-2.6994479
43	0xc0d3fc8a	-6.6245775
44	0xbfa4bc79	-1.2870017
45	0xc0947c44	-4.640169
46	0xc033d7ba	-2.810042
47	0xbea486a6	-0.3213398
48	0xc08d8655	-4.422648
49	0xbe1c84bf	-0.15285014
50	0xc090ab25	-4.5208917
51	0xc0474f51	-3.114216
52	0xc085cd96	-4.181346
53	0xbfbbeec2	-1.4682238
54	0xbf7179ec	-0.94326663
55	0xc00c8542	-2.1956334
56	0xc037a879	-2.8696578
57	0xc080759c	-4.0143566
58	0xc009a848	-2.150896
59	0xc086dc0c	-4.214361
60	0xc07b81a4	-3.9297876
61	0xc073fec6	-3.8124251
62	0xc0de2629	-6.942158
63	0xc0e04b5f	-7.0092006
64	0xc09e8e0b	-4.954839
65	0xc0a04af5	-5.00915
66	0xbe170bca	-0.14750591
67	0xc0305c44	-2.7556314
68	0xc0895a5b	-4.2922797
69	0xbfb9e5a8	-1.452321
70	0xbfb5bffb	-1.4199213
71	0xbfc5fd88	-1.5467997
72	0xbf8df011	-1.1088887
73	0xc0301473	-2.7512481
74	0xc02ca973	-2.6978424
75	0xbef0d9a1	-0.47041038
76	0xc0149f52	-2.3222241
77	0xbf907a27	-1.1287278
78	0xbd4413a5	-0.047870297
79	0xbf839237	-1.0278996
80	0xbeb87d7b	-0.36033234
81	0xbfb96ad7	-1.448573
82	0xc0521d15	-3.283025
83	0xc05786cc	-3.3676023
84	0xc09d7c9e	-4.921462
85	0xc032d1b6	-2.7940497
86	0xc09d411b	-4.9141974
87	0xc0054fec	-2.083003
88	0xc051c5a7	-3.2776887
89	0xc015d4b0	-2.3411064
90	0xc059b57a	-3.4017015
91	0xc08b723b	-4.357694
92	0xc0d912a9	-6.783528
93	0xc02e2d3c	-2.721511
94	0xc0ab531e	-5.353896
95	0xbfec70c4	-1.8471913
96	0xc07f2707	-3.986757
97	0xc0cdea9f	-6.4348903
98	0xc06e3f39	-3.7226088
99	0xc055b940	-3.3394318

running_var f4 [100]
0	0x42226bd1	40.60529
1	0x4291da47	72.92632
2	0x4256231e	53.534294
3	0x42289b37	42.151577
4	0x4279ae02	62.41993
5	0x4276b2f6	61.674767
6	0x428e0722	71.01393
7	0x42825bc3	65.17922
8	0x427e3a20	63.556763
9	0x4292d416	73.41423
10	0x42902423	72.07058
11	0x42170d03	37.762707
12	0x4266feb0	57.74872
13	0x42a54abb	82.64596
14	0x428ad9c8	69.425354
15	0x429bd62b	77.9183
16	0x4290615d	72.19016
17	0x4250d7ea	52.210854
18	0x42761752	61.522774
19	0x428faea7	71.84112
20	0x428bf1d9	69.97236
21	0x427d17ec	63.27336
22	0x42b3f096	89.969894
23	0x426d0623	59.255993
24	0x425ce071	55.21918
25	0x42748f17	61.139736
26	0x42876083	67.6885
27	0x4298bcc3	76.368675
28	0x4284a114	66.314606
29	0x42854caf	66.64977
30	0x42a3ed21	81.96314
31	0x4288ae56	68.3405
32	0x429b5396	77.66325
33	0x425ad1ab	54.704754
34	0x4288e607	68.44927
35	0x4296312a	75.09602
36	0x422d03c0	43.253662
37	0x42a45161	82.15894
38	0x425c5c6a	55.09025
39	0x42502afe	52.041985
40	0x421bb323	38.92494
41	0x42658294	57.377518
42	0x4226df8e	41.718315
43	0x427d2145	63.28249
44	0x4252630a	52.596718
45	0x4296a2b1	75.31776
46	0x4287b31a	67.84981
47	0x42840280	66.00488
48	0x4269de40	58.46704
49	0x4298ac22	76.3362
50	0x4272c341	60.690678
51	0x42846560	66.198
52	0x429e0376	79.00676
53	0x429eb18f	79.346794
54	0x42410dfe	48.263664
55	0x42734ba9	60.823887
56	0x42772834	61.78926
57	0x42523a6c	52.557053
58	0x428d1190	70.5343
59	0x42719fa4	60.4059
60	0x42a85a3e	84.176254
61	0x428a92a6	69.28642
62	0x4270c02f	60.18768
63	0x4273c36d	60.940845
64	0x4289f156	68.97136
65	0x428a7041	69.219246
66	0x42831af7	65.552666
67	0x42388874	46.133255
68	0x4283e591	65.94837
69	0x4278cffa	62.203102
70	0x42844455	66.13346
71	0x42813bee	64.61705
72	0x4235808f	45.375546
73	0x429e6677	79.20013
74	0x42781128	62.016754
75	0x428a1c7f	69.05566
76	0x425f01d5	55.75179
77	0x425805b3	54.005566
78	0x4264a0b2	57.15693
79	0x42a868bd	84.20457
80	0x425d72b3	55.36201
81	0x42886e81	68.21583
82	0x426ad6cf	58.709774
83	0x4280333b	64.10006
84	0x4277280a	61.7891
85	0x428624f3	67.07217
86	0x429ad1c1	77.409676
87	0x42638112	56.876045
88	0x42679daf	57.903988
89	0x42401a61	48.02576
90	0x422169be	40.353264
91	0x428b2b73	69.58486
92	0x428af4c7	69.47808
93	0x424d9f71	51.405704
94	0x42818c08	64.7735
95	0x424bcda1	50.95081
96	0x4262638c	56.597214
97	0x42a1d916	80.923996
98	0x427fb1d1	63.92365
99	0x4280fcb9	64.4936
