svhn_model_epoch.pth (torch, 904750 bytes, 26 tensors)

weight f4 [64, 3, 5, 5]
00000000: 3550 d23e bd21 a43e 55ec 2a3e 95d7 27bd
00000010: 418d 293e 54cb a43e 996c 303d 1cd3 18be
00000020: f04a 2dbe 059e c63d 689d 2b3e 5b89 1abe
00000030: 9516 e5bd 4932 6abd aa52 0bbd 7601 933d
00000040: f20f 1bbe 6fc6 b1bd 1cb3 35be 6320 f5bd
00000050: 1824 2e3e 5d76 f8bd bb4b a5be 1545 b4be
00000060: 34af 353d 1b8d 063f 1e0f bb3e 46ac a33b
00000070: 70cc e8bc f3ca 683e aa2d 943e a082 ec3d
00000080: 3571 d9bc 7ed1 24bd 7579 e23c ea93 6b3e
00000090: 08af 8ebd 9a97 15be 2ebc 81be a0eb 1a3d
000000a0: 5e2b 493e ad94 b33d 3da0 8dbe 9214 52be
000000b0: 2ab1 63be d0a5 943d 828b 70bd 9941 8abe
000000c0: 2c48 f8be 456f 2abe 4d08 db3e d226 be3e
000000d0: 8cc5 213d 2a67 293d cac1 873d 31d5 b63e
000000e0: e394 583e d62f 16bd b1b7 3bbe d964 6e3e
000000f0: 1815 583e 6865 133d 12d1 11be 23c4 40be
00000100: f91a a63d a558 683e 6ab0 0e3d 7053 53bd
00000110: 782e 68be dadf febd 7b42 873c 001b 543d
00000120: a582 96be 61ed dfbe 0b86 75be 2b74 ee3d
00000130: 5d42 52bd 51d6 c8be 5515 95be 00f4 5ebe
00000140: d4ce 9b3d 8e0b 55be ee86 73be 3f8e 03bf
00000150: d5ab 80be a0ce 98bd 400c 59be 84e3 4abe
00000160: e39c b6be 9b71 76be 33d3 9ebb 8a91 a8bd
00000170: fbb0 abbc ef0d cdbb d649 db3d 5d98 b93c
00000180: 1b29 7b3e 4ac5 903e 3f28 063f 77c7 003f
00000190: 993f d7bc c86d 79be 282c 4fbe 9717 a3be
000001a0: 174f 19be e593 3fbe c781 94be 3ee0 4abe
000001b0: afbd d1be bea7 42be d24c 42be 2744 5dbe
000001c0: dd72 85be a937 60be 233c 1ebe 39bd 74be
000001d0: 2362 dfbc ce58 56bd 1cea 43be dbbd 14be
000001e0: c7dd 74be 65d2 1a3e 680c 343e 08b3 d03e
000001f0: 83a2 893e d82e 7bbd b928 3b3e db2f 0b3e
00000200: 0eaf 563e cb79 b23d 8d25 b83b 35ba 983d
00000210: 2520 423e 8216 163e a267 123e d76a e83d
00000220: 06f1 ec3d 571d 3f3e 2427 e43d adb1 f83d
00000230: 097f 3ebd 382e ce3d 2c69 093e f4c7 373e
00000240: be71 8f3d e0af 0ebe 9454 6a3d 17b8 be3e
00000250: dc18 e33e a3c0 c33e 79cb f6bd ffb1 20be
00000260: d324 8ebe eb02 ecbd e7a8 793e 573b 83bd
00000270: a9ae ef3a cbac 57be 15b0 20bd 7194 6c3e
00000280: abdd efbc a1a1 f3bd ff64 a73d 203b 513d
00000290: 2ef8 f63d 9953 81be 3753 983d 2833 913d
000002a0: 1d69 313e 2c3f b9bd 7646 78be 8957 e93d
000002b0: 7831 803e 2537 933e 85e5 bb3d 2f68 bbbe
000002c0: 4772 0abf 331e 05bf c587 52be 90a6 b03e
000002d0: 717c e8bd 4d41 b0be 3093 15be 4f40 a23c
000002e0: 9642 a43e c4c5 71be f62e 7abe 2f79 093e
000002f0: 048a 8a3e ea26 e23d c2c3 5ebe 7671 9cbc
00000300: 1ff7 583e 0903 533e fa5a 6e3e c271 41be
00000310: d0fd 263e 17ce de3e cd2f e93e 8cfc 9e3e
00000320: ca74 0d3d b22c bdbe 8b2f 86be 72d2 4fbe
00000330: 804d d43d 1db4 4a3d 254b f4bd f2b4 63bd
00000340: 90e1 b23d 4973 893d 48d5 7d3c 1369 31be
00000350: bc6e c0bc ade7 483e 5e4b fdbc 030f f7bd
00000360: bdfc 84bc 9088 353e 7ccc 523d e8bf 573d
00000370: 551b 56be f272 dc3d f696 623e 1204 413e
00000380: 740d 4ebd a7b9 b8bd a33c 733b 52db ae3d
00000390: 1dfe 18be ed58 b0be 440d 24be 4ac2 363e
000003a0: cda4 1a3e 5f9a 133e 1951 14be 1aff 8abd
000003b0: e17e 3c3e 74b6 743e 92a7 2c3e 3507 ce3d
000003c0: 7cf0 8bbe 29e7 c3bd 5996 e63c c099 803e
000003d0: 7bf6 493e fc19 debe 91e0 3dbe 4860 ba3d
000003e0: ffe2 913e fd50 963e 5a4e 10be 0548 f5bc
000003f0: c2cf 363d 7d7d 35be 854f a3be e4a2 99be
0.41076818 0.3205699 0.16691716 -0.04097708 0.1655779 0.32186377 0.043072317 -0.14924282
-0.16923118 0.096981086 0.16759264 -0.1509146 -0.11185948 -0.057176862 -0.03401438 0.07178013
-0.15142801 -0.08680426 -0.17744106 -0.11969068 0.17005956 -0.12131951 -0.3228434 -0.35208955
0.04435654 0.5255906 0.3653497 0.004994902 -0.028417796 0.22733669 0.2894109 0.11548352
-0.02654324 -0.04023885 0.027645806 0.23005643 -0.06966978 -0.14608613 -0.25338882 0.037822366
0.1964545 0.08768592 -0.27661315 -0.2051566 -0.22235551 0.07258189 -0.058726795 -0.27003172
-0.48492563 -0.16644008 0.4277977 0.37138993 0.039495036 0.04135815 0.06628759 0.35709527
0.21150546 -0.036666714 -0.18331791 0.23280658 0.21101797 0.03598538 -0.1423991 -0.1882482
0.081106134 0.22690065 0.03483621 -0.051593244 -0.22673976 -0.1244504 0.016511193 0.05178356
-0.2939655 -0.43735793 -0.23976915 0.11643251 -0.05133282 -0.3922601 -0.29117838 -0.21772766
0.07607809 -0.20805189 -0.2378194 -0.51388925 -0.25131097 -0.074612856 -0.21196079 -0.19813353
-0.3566657 -0.24066775 -0.0048469543 -0.082308844 -0.020958414 -0.0062577645 0.107074425 0.02265566
0.24527399 0.2827552 0.5240516 0.5030436 -0.026275443 -0.24358284 -0.20231688 -0.31853935
-0.14971577 -0.18708761 -0.29005262 -0.19812104 -0.4096503 -0.19009301 -0.18974617 -0.2160803
-0.26064196 -0.21896233 -0.15452628 -0.23900308 -0.027268475 -0.052330784 -0.19132274 -0.14525549
-0.23912726 0.15119322 0.17582858 0.4076159 0.268818 -0.06132397 0.18277253 0.13592474
0.20965216 0.087146364 0.005619711 0.07457391 0.18957575 0.14657024 0.14297345 0.11348503
0.11569409 0.18663536 0.11140278 0.12143264 -0.04650787 0.10067409 0.13419026 0.1794737
0.070041165 -0.13934278 0.057209566 0.37249824 0.44354904 0.38232908 -0.12050528 -0.156929
-0.2776247 -0.11523994 0.24380837 -0.064078026 0.0018286306 -0.21062009 -0.039230425 0.23103501
-0.029280504 -0.11896063 0.0817356 0.051081777 0.12059055 -0.25259092 0.07437747 0.070898354
0.17325254 -0.09045252 -0.24245629 0.11393649 0.25037742 0.2875301 0.09174637 -0.36602923
-0.54080623 -0.51999205 -0.20559604 0.34502077 -0.1135186 -0.3442482 -0.14606929 0.019806055
0.3208205 -0.23610598 -0.24431977 0.13425134 0.27058423 0.110425785 -0.21754363 -0.019097071
0.21188019 0.20606627 0.23276892 -0.18891051 0.1630776 0.4351661 0.45544282 0.31052053
0.034535207 -0.36948162 -0.26208147 -0.20295122 0.103663445 0.049488176 -0.11928395 -0.055592485
0.08734429 0.06711442 0.015492745 -0.17325239 -0.023490302 0.19619627 -0.030919727 -0.1206341
-0.016233796 0.17727876 0.051464543 0.05267325 -0.20908864 0.107641116 0.221279 0.18849209
-0.0503058 -0.090197854 0.0037115 0.08537926 -0.14940687 -0.34442845 -0.16020685 0.17847553
0.15101929 0.14414357 -0.14484061 -0.06786938 0.18407775 0.23897725 0.16860798 0.100599684
-0.27331913 -0.09565575 0.028147863 0.25117302 0.19722931 -0.433792 -0.18542697 0.091003954
0.28493497 0.29358664 -0.14092389 -0.029941568 0.044631727 -0.17723651 -0.31896606 -0.30007088

bias f4 [64]
00000000: 8276 92bd 0e7a a83d 0659 debc d86c c53d
00000010: 9ba2 d1bd 0d47 ff3a 846f 99bd 7937 bd3d
00000020: 47e3 b03d 6a48 a73d 3aff b83d e920 cd3c
00000030: 1f47 54bc d4c1 7ebc 92c5 cd3d 913d 773d
00000040: 858e 83bd 8b90 643d 970e 01be 5d46 053e
00000050: ec2e 883d 4c07 cf3c 6d9e dbbd 7951 a73d
00000060: 41e5 a6bd a9eb 5d3d b97e 33bd 483c 853d
00000070: 7edf 833b 1fc7 453d 3408 d4bd f214 d8bd
00000080: 12e8 fb3c 4990 c93b 8136 00bd 83b1 20be
00000090: afdb 103d 1fda 19bd 08bd abbd 4dbf 78bd
000000a0: e020 b63d 45e4 943d d705 2c3d 7dd3 a03d
000000b0: 0ac8 f5bc 3307 523e dc03 9ebc b463 eabc
000000c0: f8f1 bcbd 394f 00bd 7bf8 d13d 99af f03c
000000d0: f6c5 9b3d 682c 66bd 1e7b cf3d f60f 10bc
000000e0: 1517 d73c 6768 413d a5bd 923d 697e 9a3d
000000f0: 5204 d4bd e182 babc e746 0c3e 76f4 ff3d
-0.0715151 0.08226405 -0.027142059 0.09639901 -0.10236093 0.0019476131 -0.07491973 0.09239096
0.086371 0.08168109 0.090330556 0.025040107 -0.01295641 -0.015549142 0.10047449 0.06036145
-0.06423668 0.05580191 -0.12603222 0.13015123 0.06649575 0.025272034 -0.10723577 0.081698366
-0.081491955 0.05417982 -0.043822024 0.06505638 0.004024445 0.0482856 -0.10353127 -0.1055087
0.030750308 0.0061512333 -0.03130198 -0.15692715 0.035365757 -0.037561532 -0.08385664 -0.060729314
0.08892989 0.072701015 0.041997757 0.07852838 -0.030002613 0.20510559 -0.01928895 -0.028611995
-0.092258394 -0.031325553 0.10252472 0.029380606 0.076061174 -0.056194693 0.101309046 -0.008792868
0.026256124 0.047218706 0.07165078 0.07543642 -0.103523865 -0.022767486 0.13698922 0.12497799

weight f4 [64]
00000000: 6f9a 033f d5bc 473f b9ff 3a3f e7a1 893f
00000010: a76b 7a3f 8977 a23f 5618 943f 050a ca3e
00000020: 59a3 183f 2c2c 0a3e 2d0f 043f 5666 393f
00000030: 5260 733f efe4 563f 99a1 c93e c6a8 443f
00000040: f1a8 ff3e e1e7 ed3e 4606 8e3f dc80 a33f
00000050: 0247 003f a917 243f 8493 8c3f 98f7 363f
00000060: beca 5c3f a27c 3d3e a5fd 693f 8bdb fa3e
00000070: e6e6 073f faa5 703f ca58 463f dbed 653f
00000080: dbfe 7b3f e7a5 353f 98fc 2e3f e98b c23f
00000090: 5a87 323f 4857 933f 8eb8 303f 2af3 c93f
000000a0: 4dba fe3e 1d4f 813f 0383 4d3f 358e 7f3f
000000b0: 60bc 103f 2b07 843f 39d1 883f 37dc b83f
000000c0: 1049 bf3e fab2 913f e62d 633f afce 333f
000000d0: 0229 fc3e f4fb 513f 0e9b 2a3f a680 383f
000000e0: b52e 803f d2cf 5b3f 6238 483f 5df3 1b3f
000000f0: 899b 603f 925b 953f 4ee2 743f d824 ba3f
0.5140752 0.7802251 0.7304645 1.0752534 0.97820514 1.2692729 1.1569927 0.3946077
0.5962425 0.13493413 0.51585656 0.7242178 0.9506885 0.83943075 0.39381102 0.7682003
0.4993358 0.46465972 1.1095665 1.27737 0.5010835 0.640986 1.0982518 0.7147155
0.8624686 0.18504575 0.91402656 0.48995623 0.530867 0.9400326 0.7747923 0.89816064
0.98435754 0.7095627 0.6835418 1.5198947 0.6973778 1.1511011 0.6903161 1.5777333
0.4975151 1.0102268 0.80278033 0.99826366 0.5653744 1.0314687 1.068885 1.4442204
0.3736043 1.1382744 0.8874191 0.7023725 0.49250036 0.82025075 0.66642845 0.720713
1.0014254 0.85863984 0.78211033 0.6091822 0.8773733 1.166857 0.95657814 1.4542494

bias f4 [64]
00000000: fb0c 33bd feb2 57bf 99a3 e1bd 50be 2bbf
00000010: a4a2 8dbd 7139 6ebe 9ced 08be 1f85 d7bd
00000020: 4940 2abf d311 25bf c08e 7ebe 2039 9a3c
00000030: ee0e d9be 8138 22be b32f 25bf 8e86 d0be
00000040: b688 2f3b b061 a9b9 f3a8 92bf b088 38be
00000050: 8b36 bfbe cfc0 39bf abc0 ddbd 2e3e 3cbd
00000060: d74a 833c 1305 25bf d633 2abf 6957 b4bd
00000070: ed8c e1be 479c 28bd 36e1 f0bd e2a8 1cbd
00000080: c630 2ebe f9bb 2fbd b091 6bbe 44c0 0fbe
00000090: cc63 aabd 4709 84bf 9d83 29bf 453b 9cbe
000000a0: 1c3d 11be 13d6 7fbf 9c21 b9bd 7de7 a2bd
000000b0: c4d1 bfbd 2e76 8cbd 9ebb 8bbd a47d 95bd
000000c0: 1ac1 84be 7f5f 8cbf 5201 9cbd 8b38 0fbf
000000d0: ddbf 47bf 0c6c dbbe 9c2a 16bd 6d99 cbbd
000000e0: b836 0bbf 2b61 9dbe dc74 4bbf 9149 6ebf
000000f0: f1c6 c3be 541e 6abf 394a 4cbe 9218 cbbe
-0.04371355 -0.84257495 -0.11017532 -0.6708727 -0.06915787 -0.232641 -0.13371891 -0.10523438
-0.6650434 -0.6448032 -0.24859142 0.018826067 -0.42394203 -0.15841867 -0.6452591 -0.40727657
0.0026784367 -0.00032306975 -1.1457809 -0.18020892 -0.373463 -0.7255983 -0.10827764 -0.045957737
0.016026897 -0.6446087 -0.66485345 -0.08805735 -0.4405283 -0.041164663 -0.117617056 -0.038246997
-0.17010793 -0.042903874 -0.23004794 -0.14038187 -0.08319816 -1.0315331 -0.6621645 -0.3051397
-0.14183468 -0.99936026 -0.090396136 -0.07954309 -0.093661815 -0.068584785 -0.068228945 -0.07299355
-0.25928575 -1.0966643 -0.07617439 -0.5594565 -0.78027135 -0.4285587 -0.03666173 -0.09941373
-0.5438037 -0.30738196 -0.7947519 -0.93081003 -0.38237718 -0.9145253 -0.19950189 -0.39667183

running_mean f4 [64]
00000000: f208 34bd 338a 0a3e 2362 4dbd bd92 8e3d
00000010: d999 c6bd b761 44bb 74df a1bd 0540 883d
00000020: 6b8c 593e 1bab 183d a2bb ab3d 4b36 4abc
00000030: fdaa 4cbc 6917 5dbd 2b7d 7cbc 71d8 323d
00000040: 4c0f 82bd 163d 983d 871f f6bd b592 0c3e
00000050: 0ce8 013e b0a8 5f3d 4863 08be 0d29 6c3d
00000060: f2c3 5fbd 8b8c e13d c2d2 7d3c 345f a13d
00000070: bab2 8c3b 8ad8 323d d929 b6bd 01bc a0bd
00000080: a4e4 013d 2c43 fa3b 9269 413b 4b8e 20be
00000090: 8c19 4f3d ea7d 91bd a2bb 61bd f3ad 63bd
000000a0: 831b bf3d f9e8 933d 4a5c ba3c 1336 823d
000000b0: 4600 d1ba 0982 4b3e 4eb7 bfba ea5c fbbc
000000c0: f7c1 3bbe 97a2 7cbc def2 8c3d c7ab 83bc
000000d0: 8282 ba3d 8396 59bd 30ff d03d 9b8f 9abc
000000e0: b2df 893c ceac 223d de72 443c e507 ed3d
000000f0: 5262 b6bd b426 c23a 139b 243e 9a52 ed3d
-0.043953843 0.13529281 -0.05014242 0.06961582 -0.09697313 -0.002996547 -0.079039484 0.06652836
0.21244971 0.037272554 0.083853975 -0.012342046 -0.012491939 -0.053977404 -0.015410702 0.043663446
-0.06350574 0.07433526 -0.12017732 0.1372784 0.12686175 0.054604232 -0.13319123 0.057656337
-0.054630227 0.110131346 0.015492143 0.07879487 0.004293767 0.04366354 -0.088947006 -0.07848359
0.03171219 0.007637402 0.0029512388 -0.1567928 0.050561473 -0.07104094 -0.05511058 -0.055585813
0.09331419 0.072221704 0.022749085 0.0635797 -0.0015945516 0.19873823 -0.0014626773 -0.030683953
-0.1833571 -0.015419624 0.06882261 -0.01607312 0.09106924 -0.053122055 0.10204923 -0.018867305
0.016830299 0.03971558 0.011990277 0.115737714 -0.08905472 0.001481256 0.16074781 0.115880206

running_var f4 [64]
00000000: 832b 0a41 a53d c640 7ca2 f240 c7fa 9a40
00000010: d0c6 7c40 e439 3a40 cc9e 0040 b299 0a41
00000020: 42b1 4941 7e1c 3641 3ef5 6740 3a7c bf40
00000030: 197f a13f 4f41 fd40 fa4c 2442 8107 0641
00000040: 75a2 0941 a510 8340 0bb9 5640 9392 bb3f
00000050: a013 6441 4304 d441 79d3 d740 b8ce 2541
00000060: 931a 9440 0708 d141 212d 8940 54e3 2841
00000070: ee94 1e41 32a8 5c41 2e3d 7840 41e4 a240
00000080: 8109 fb3f 34be 2741 6e5b e440 d988 2640
00000090: 50e2 e740 f8d3 a840 d3ce 6a41 d7db 1d40
000000a0: 3497 0941 6e59 3f41 8d22 3540 943b 6c40
000000b0: a563 a540 9e48 3d40 53c9 0841 c83f 6340
000000c0: 158e 1a41 180e 9040 45b5 ad40 ebad 3941
000000d0: 1242 0d41 d1eb 3241 4b8c d93f e360 8840
000000e0: 67b6 f83f b2a2 a840 c3ad 0741 9f5d 9a40
000000f0: af61 1141 912c a640 1192 f140 72b4 913f
8.635623 6.195025 7.5823345 4.8431125 3.9496346 2.9097834 2.0096922 8.662523
12.605776 11.381956 3.6243434 5.9839144 1.2616912 7.9142222 41.075172 8.376832
8.602162 4.095782 3.3550441 1.4654106 14.254791 26.50208 6.7445645 10.362968
4.628244 26.12892 4.286759 10.5555 9.91136 13.791063 3.878734 5.090363
1.9612275 10.483936 7.136161 2.6021025 7.246376 5.275875 14.675494 2.466543
8.599415 11.959333 2.8302338 3.6911364 5.1684136 2.9575572 8.549151 3.550768
9.659688 4.5017204 5.4283776 11.60496 8.82863 11.182572 1.6995939 4.261827
1.9430665 5.2698603 8.479922 4.8239284 9.086349 5.19294 7.5490804 1.1383193

weight f4 [50, 64, 5, 5]
00000000: fa62 8cbd 3fef 943d 957c b6bd 8b5c 093e
00000010: 0f96 803e 0ee3 a2be 4f14 acbd 64e1 513d
00000020: bbce 81bd 16f8 f13d 8fc5 f1bd 14ef 1abe
00000030: 8417 63bd e305 10be 3108 c3bd 8d70 713e
00000040: 185e 703d eaa9 dd3c d1f7 2dbd 6aa1 84bd
00000050: d606 a33e ab71 c43e 9b69 fe3a 4265 b13d
00000060: 525a 373e 3f76 bd3e 7465 053f 2a9c ec3e
00000070: d595 2a3f 88ac 543f ef78 26bd ed27 b83d
00000080: e8e7 2a3e 328d 343d b162 d83d 9dd0 4fbe
00000090: eab4 c73c 2a0b 983d 99aa 09be d8c7 45be
000000a0: f8e1 9bbe d161 d6bd 2b7c 2dbe 6c5b a7bd
000000b0: c71c c73d 69f9 42bc 2274 a93d 3487 e13c
000000c0: 4e2a f9bc df18 b1be 1eb8 1b3d 378c 82be
000000d0: e38b 46be 7742 943d 23cd 4ebd 4904 ae3c
000000e0: ed19 a93d 1942 6c3d 76ff 3f3e d823 883e
000000f0: 68c5 223e 6748 a03d bfaa 263d f293 b83d
00000100: ad37 4d3e cc93 663e a248 0c3d 98fb 873c
00000110: 88e6 673d e55b fc3d 35f5 633e 5bd4 22bc
00000120: 0b0d 33be c2c5 83bd 6e17 de3d b301 673e
00000130: 8425 b83e c21d ec3e 9d9f ed3e 04ef a43d
00000140: ba4a 26be ba81 c13d 6220 b73e edd0 553e
00000150: 7d69 0f3e 3ddd a9be d827 6ebe f171 963d
00000160: 07a0 93be 6db5 e4bd d8c0 ef3d ce61 eebd
00000170: 4eaa 07bd b88b 3e3d e82a 89bd 9012 dd3c
00000180: 48cf 293d 0e7b 55be 3c96 8abe b7dd a8bd
00000190: 8693 723d 0c40 d83c 4469 1ebe 69fc 90bd
000001a0: 0066 27be 3d58 5ebd 3556 adbd 66ae 1abe
000001b0: 5d34 b03d da1b 493d 946f a13d 6708 1e3d
000001c0: e29c 07be ba0e 1abd 6ef9 113e f4d6 7dbd
000001d0: db48 dcbd 0100 1f3c 9326 80be 4636 f13c
000001e0: 26e0 893e 6116 303d 72ec 1b3e 3d3e 66be
000001f0: 6108 b8bd 6626 c63d 3ab7 46bd 6a45 03bf
00000200: 60b7 58be 739c 1abe b8ad 6a3d 4c7a ae3d
00000210: 47cd 91bd b98d 64bd 5b55 dcbd 865d 07bf
00000220: 781c 843e 4447 77bc 05d5 f83d fa69 35be
00000230: fe71 4fbe 58c1 ccbd 375f 443d 8e50 b6bd
00000240: 589e 03be ff38 5c3e d77f c9bd c5c3 61be
00000250: 9bbc 25bd 2ad7 a93d f8ae bb3e ca67 813d
00000260: 287f 793e 583e cb3e a32f cf3d df7c 4e3e
00000270: 5ad7 c5bc 0179 64be 2f23 be3d 3d68 87bc
00000280: 1611 463e 88ad 36bd 5382 8ebd ef70 31bf
00000290: 6a16 72be 0961 8bbe 6c18 623c 124e a53d
000002a0: 83c0 e13d 877f 44be e423 d63d 4714 913d
000002b0: 72a9 a2bd baeb 843e b68a 483e 1fe5 65bd
000002c0: 92cf 31b9 e585 da3d 7b74 0a3d 1ea0 523e
000002d0: c16e e7bd 4de3 11be e3d3 49be b952 3cbd
000002e0: bf5c 703e bbe5 7ebd ee2e b6bd a190 dbbe
000002f0: dd17 43be 53c0 bbbd 3fac 46be ab38 50be
00000300: cb2b 53be ec30 37be 7f84 3b3d 5fc0 40be
00000310: 04f6 71be 0080 81bd 51b6 59bd e8d3 6bbe
00000320: 9b91 e9bc be57 8a3e e24c 593e 3914 0dbe
00000330: 5f81 5c3d 89da 67be 7d62 8dbd 6e1b 5f3c
00000340: 095f 8ebe a02c cabe 4310 25bf 42f1 2fbf
00000350: 77ca dabe 9e94 97be 9d65 fcbe 6d54 6bbe
00000360: cade e5be b3e4 acbe 4c30 3ebe 4a48 9cbe
00000370: 0a86 e43d e0a9 e7bb c134 6a3d 4be7 313e
00000380: e44a 2f3e 53c4 743d e8c9 7cbc acef d83c
00000390: f32e 553d 89f6 f63d eb96 693d 51b9 dbbc
000003a0: 7127 943d ccb9 813d adcc de3d 5b32 593d
000003b0: 6609 65bd e660 823d 89fc 303d a637 da3d
000003c0: 7340 2c3d 224f 55bd 6190 b43d f695 e83c
000003d0: 8807 203d 18bd 303d 35e0 f2bb a258 0e3d
000003e0: cbab cc3c 11e6 7bbc 3d8b 8ebe fada 9bbc
000003f0: 5fbe a83e bd9e 883e dbe6 60be 6c75 be3d
-0.06854816 0.07272195 -0.08910481 0.13414209 0.25114486 -0.31813854 -0.08402311 0.05124034
-0.06338259 0.11814897 -0.118052594 -0.15130264 -0.055442348 -0.14064746 -0.09523047 0.23578091
0.058683485 0.02705856 -0.042472664 -0.064761 0.31841153 0.38367972 0.0019410135 0.086618915
0.17905548 0.37004277 0.5210793 0.46212894 0.66634876 0.8307576 -0.040642675 0.0899199
0.16690028 0.044079967 0.10565699 -0.20294423 0.024378259 0.074240044 -0.13443984 -0.19314516
-0.30445838 -0.10467876 -0.16941898 -0.08171734 0.09722286 -0.011900284 0.08274104 0.02753029
-0.03041568 -0.34589288 0.038017385 -0.254976 -0.193893 0.0723924 -0.050488602 0.021242278
0.08256898 0.057680223 0.18749794 0.26589847 0.15895617 0.0782631 0.04069018 0.09012593
0.2004077 0.22517318 0.034248956 0.016599461 0.056616336 0.12322215 0.22261508 -0.009938325
-0.17485444 -0.06434204 0.108443126 0.22559242 0.35966122 0.46116453 0.46410838 0.08053401
-0.16239443 0.094485715 0.35766894 0.2088048 0.14005084 -0.33176604 -0.23257387 0.07345951
-0.2883303 -0.11167417 0.11706704 -0.116397485 -0.0331214 0.046519965 -0.06697637 0.02698639
0.041457444 -0.20847723 -0.27067745 -0.08245414 0.05922272 0.026397727 -0.15469843 -0.070793934
-0.16347504 -0.05428337 -0.08463708 -0.1510559 0.086037375 0.049098827 0.0788261 0.03858223
-0.1324344 -0.0376117 0.14255306 -0.061972573 -0.107560836 0.009704591 -0.2502943 0.029444825
0.26928824 0.042990092 0.15226915 -0.2248468 -0.08985973 0.09675293 -0.048514582 -0.5127779
-0.21163702 -0.15098743 0.057294577 0.0851942 -0.07119232 -0.05579922 -0.10758468 -0.5287708
0.2580297 -0.015092675 0.12150005 -0.17716208 -0.20258328 -0.09997815 0.047942366 -0.08902083
-0.12853372 0.21506117 -0.09838837 -0.22047336 -0.04046307 0.082929924 0.36656928 0.06318624
0.24364913 0.39696002 0.10116508 0.20164822 -0.02415054 -0.22311784 0.092840545 -0.016529197
0.19342455 -0.044599086 -0.06958451 -0.6931295 -0.23641363 -0.2722247 0.013799768 0.08071531
0.11023047 -0.19189273 0.10456064 0.07083946 -0.079424754 0.25961095 0.19584164 -0.05612671
-0.00016957361 0.106700696 0.03380249 0.20568892 -0.113004215 -0.14246865 -0.19709735 -0.045977328
0.2347288 -0.062230807 -0.0889567 -0.4288378 -0.19052072 -0.09167542 -0.19401644 -0.20334117
-0.20622174 -0.17889756 0.045780655 -0.18823384 -0.23629004 -0.06323242 -0.053152386 -0.23030055
-0.028511813 0.27020067 0.21220735 -0.13777246 0.053834315 -0.22641958 -0.06903551 0.01361738
-0.2780688 -0.3948717 -0.6447794 -0.68727505 -0.42732593 -0.29605573 -0.49296275 -0.22981425
-0.44896537 -0.33768234 -0.18573111 -0.30523902 0.111583784 -0.007069811 0.057179216 0.17373388
0.17118412 0.059757542 -0.015428998 0.026481472 0.052046727 0.120587416 0.057028692 -0.026821764
0.07234085 0.06334266 0.108788826 0.05302654 -0.055917166 0.06366138 0.043209586 0.10655145
0.04205365 -0.05207742 0.088166006 0.02839182 0.039069682 0.043149084 -0.0074119815 0.034752496
0.024984261 -0.015374676 -0.27840605 -0.019025315 0.32957742 0.26683608 -0.21963064 0.0929974

bias f4 [50]
00000000: 7a08 1bbc 7d2c 9f3b 0197 afbc dc4f d7bc
00000010: 516b 64bc 862c db3c 84da eebb 0e50 fc3b
00000020: 9839 a13c 317b 7bbc 3eb3 933c 9bf8 8d3b
00000030: 45d7 08bc 210e 02bc 3f1c 003d 69e8 ffba
00000040: 3e5a 7abc 7227 ce3c 9236 a2bc 91db 2bbc
00000050: d22c 47bd 6468 d4bc 1234 8dbb 41ca 283c
00000060: b494 4bbc 6112 d83a b25d 04bc ceb7 91bc
00000070: 0e0e c7bc 5fa6 01bc 2cb5 8dbc 3bcc 61ba
00000080: 7899 85bb 8092 703c 7d9b f5bc f918 363c
00000090: 628a 06bd c600 fc3a da6c 9aba 4c0c 6dbc
000000a0: c0ae 29bc 9628 92bc 1f8d 06bc 00c3 bebc
000000b0: ca87 523c 0284 18bc 0f62 9bbc 9180 b5bb
000000c0: 31bb ea3b d6ac 4cbc
-0.00946247 0.0048575983 -0.021434309 -0.026283197 -0.013941602 0.026754629 -0.0072892327 0.007699973
0.019680783 -0.015349195 0.018029805 0.0043326146 -0.0083521055 -0.007937939 0.031276938 -0.001952422
-0.0152803045 0.025165293 -0.019801412 -0.01048936 -0.04862673 -0.025928684 -0.004309186 0.010302127
-0.01242559 0.001648497 -0.008078979 -0.01778784 -0.024298694 -0.007913201 -0.017298304 -0.00086135016
-0.004077133 0.014683366 -0.02998137 0.011114352 -0.032846816 0.0019226305 -0.0011781708 -0.014468264
-0.010356605 -0.017841619 -0.008212357 -0.023286343 0.012849757 -0.009308817 -0.018967656 -0.005539008
0.0071634282 -0.012492379

weight f4 [50]
00000000: 3fef 633f f295 643f dba0 553f d2f1 493f
00000010: 92eb 403f 5b6f 523f f639 3a3f f1c4 6e3f
00000020: 6832 433f 23d7 423f b7f7 4a3f 064d 643f
00000030: 4e33 643f 2040 573f a878 473f d613 5f3f
00000040: ceb3 623f 6734 3f3f aef2 233f 091d 453f
00000050: 522d 623f 7bd7 5d3f 44e6 0d3f fdcb 7a3f
00000060: e783 593f c99b 403f a605 0b3f 0554 603f
00000070: beec 3d3f 216c 533f 4043 373f c144 563f
00000080: a7fd 493f 7950 563f 1277 603f 0111 483f
00000090: c568 6f3f b7b4 353f 6d21 603f c7da 423f
000000a0: 012d 513f 9d89 623f 19fb 473f 3d0c 543f
000000b0: 0bc8 573f 981e 553f 6498 343f 3a1d 543f
000000c0: c9e5 1f3f 5780 503f
0.89036936 0.892913 0.8344857 0.78884614 0.7535945 0.82201165 0.7274469 0.9326926
0.7624879 0.7610952 0.7928423 0.8918003 0.89140785 0.8408222 0.7791848 0.8713964
0.8855561 0.74689335 0.64042175 0.7699743 0.88350403 0.8665692 0.5542948 0.9796751
0.8496689 0.7523771 0.54305494 0.87628204 0.74189365 0.82586867 0.7158699 0.8369866
0.7890267 0.8371654 0.87681687 0.78150946 0.9351924 0.70978874 0.87551004 0.7611508
0.81709296 0.8849123 0.7811752 0.82831174 0.84289616 0.8324981 0.7054503 0.82857096
0.6246 0.8144583

bias f4 [50]
00000000: 15c5 38bf c27b 2ebf d3ce 14bf 5987 2ebf
00000010: f5ac 0fbf 46cf 11bf a694 17bf 34a7 33bf
00000020: ffa9 1abf e81b 15bf a2c8 19bf f6f9 28bf
00000030: 2d2f 49bf 5c61 41bf e4f8 3abf 2044 57bf
00000040: f882 38bf 4380 ecbe b68b 00bf 8d52 22bf
00000050: 0bf6 57bf 1541 3bbf d2de ddbe 7b5e 5fbf
00000060: 458c 44bf 21e9 d6be 742c b3be bbc4 0dbf
00000070: 3fdf 0cbf 27e2 4fbf e6ef 18bf 1edc 52bf
00000080: 0e01 29bf 2870 1bbf 94e7 21bf b7b0 35bf
00000090: de54 56bf c63a 1ebf 0d7f 1cbf 2101 f6be
000000a0: 21b9 24bf 11ec 37bf 2abb dfbe c2b5 12bf
000000b0: c28c 37bf f526 03bf e70b fabe 51fc 10bf
000000c0: 1af7 bfbe 6de7 34bf
-0.72175723 -0.6815759 -0.5812809 -0.68175274 -0.56123286 -0.569569 -0.59211195 -0.70177007
-0.60415643 -0.58245707 -0.60071766 -0.6600641 -0.7858761 -0.75539184 -0.73036027 -0.84088326
-0.7207484 -0.46191606 -0.5021318 -0.6340721 -0.84359807 -0.7314618 -0.4333406 -0.8725354
-0.76776534 -0.41974738 -0.34994853 -0.5537831 -0.55028147 -0.81204456 -0.59741056 -0.8236712
-0.66017234 -0.6071801 -0.63243985 -0.7097277 -0.8372325 -0.6180843 -0.61131364 -0.48047736
-0.64344984 -0.71844584 -0.43697482 -0.5730859 -0.71699154 -0.5123132 -0.48837206 -0.56635004
-0.3749321 -0.7066563

running_mean f4 [50]
00000000: bfd9 14c1 ac85 20c1 6663 28c1 93ba e9c0
00000010: 74fb 1cc1 d61b 0dc1 0f18 bec0 93f8 2fc1
00000020: a033 68c0 884d d2c0 3d2e 05c1 25de 01c1
00000030: dd63 cec0 a562 1bc1 4ec5 05c1 cb39 01c1
00000040: 7b2f e9c0 8a25 eec0 efb3 10c1 7d08 04c1
00000050: 24b5 1cc1 3b7a b3c0 d5eb 23c0 efb0 01c1
00000060: 4bc4 a9c0 ef98 f2c0 bdef 81c0 efbe 47c1
00000070: 9fff cfc0 2636 03c1 e52c c8c0 fff1 3cc1
00000080: ff7c e5c0 1d99 34c1 7b5e 00c1 64e5 19c1
00000090: 6cd7 09c1 378a 91c0 644f b7c0 c0a8 20c1
000000a0: 625f 05c1 2dd7 1ec1 4a47 25c1 7fbe b1c0
000000b0: 294e 09c1 1ac6 e3c0 9e38 c7c0 9152 bcc0
000000c0: dc75 f6c0 60f2 10c1
-9.303161 -10.032635 -10.524267 -7.304025 -9.81139 -8.819296 -5.940437 -10.998187
-3.628151 -6.5719643 -8.323789 -8.1167345 -6.4496903 -9.711583 -8.36067 -8.07661
-7.287046 -7.4420824 -9.043929 -8.252072 -9.794224 -5.6086707 -2.561269 -8.105697
-5.3052115 -7.5811687 -4.060515 -12.484115 -6.4999537 -8.20072 -6.2554803 -11.809081
-7.1715083 -11.287381 -8.0230665 -9.618504 -8.615093 -4.548122 -5.728441 -10.041199
-8.335787 -9.927533 -10.329905 -5.554504 -8.581582 -7.1179323 -6.2256613 -5.885079
-7.701887 -9.059174

running_var f4 [50]
00000000: eaff 0043 e42f f042 b0a7 1943 6852 9f42
00000010: 8402 0243 98e3 f742 2009 af42 7d53 0943
00000020: d3b1 4342 21ec 8242 5eab d442 374a d242
00000030: 00bf 9c42 9044 d542 9eb1 cb42 a675 8742
00000040: 8d24 7a42 a70c ec42 fc8e ee42 65be c142
00000050: db28 ba42 5729 7f42 eff4 6842 7235 7b42
00000060: 2cde 3c42 b01d ec42 c977 7142 1880 4c43
00000070: 1768 a242 cccf c542 5a92 7b42 792d d342
00000080: 07e9 8742 c117 1f43 3715 d542 ce57 c642
00000090: a51d b042 3689 4542 4082 b042 a9de 3243
000000a0: 012d cd42 a702 0143 d8b7 4743 81eb 8342
000000b0: 3821 bb42 2e0d fc42 3200 9d42 259a 7b42
000000c0: 1f0c f642 774c c142
128.99966 120.09354 153.65503 79.66095 130.00983 123.94452 87.51782 137.32613
48.923656 65.46119 106.3347 105.14495 78.37305 106.63391 101.84691 67.72978
62.535694 118.02471 119.27927 96.871864 93.079796 63.79037 58.239193 62.802193
47.216965 118.05798 60.366978 204.50037 81.2033 98.90585 62.89292 105.58881
67.95513 159.09279 106.541435 99.17149 88.0579 49.383995 88.254395 178.86977
102.5879 129.01036 199.71814 65.95997 93.56488 126.02574 78.50038 62.90053
123.023674 96.649345

weight f4 [100, 1250]
00000000: b50f 463d 1cb3 9abd 7e32 383e 324e 363e
00000010: 0daf bf3c 7490 f5bc 61cb 243d 65ce 933e
00000020: cdf0 0d3e 492a 023e 7ac3 49be cbc8 673d
00000030: 4ece 813e 9b38 d83d 0226 fa3c 5be5 d73c
00000040: a6a6 ee3b ff5e abbd bf9f ba3d c106 0bbe
00000050: de43 76be 4e9b 76be 41df a4be fe56 4ebe
00000060: b0e7 16be 5eec 9bbd 0100 a5bc 4513 8a3e
00000070: b268 5d3d d6d0 ce3d bde1 f53c 7e9a 5ebe
00000080: bd49 973e 777e 5cbd 6153 1bbe 308d a73c
00000090: fb81 283d bb0e 3f3e d5f0 8d3d c0d5 08be
000000a0: 5f99 4ebd de83 e53d 12bd 49be ce6f 94be
000000b0: 65d6 55bc 7bd4 b7be ec8a 6abd baaf 6bbe
000000c0: 5ab9 4e3e 737d cfbd 8dfe 8c3e 9f5b 2ebf
000000d0: ea2c e1be cd2d 203d 3c85 bd3e fe96 313d
000000e0: 2826 6fbe ad2e 5f3e 0059 d5bd 5202 bb3d
000000f0: 70d1 74bc 38eb 44be b3ae 463d ffda 93bd
00000100: 1b72 543d aac0 55bc 4cbc 27bd e918 363d
00000110: 1edc 973d 826c 373e eac3 00bd f44b 20be
00000120: a6b7 c7be 91f4 673d e4b6 ef3d 42d0 52be
00000130: d2d8 4bbf a8bf 12bf a976 0ebf 07de 92be
00000140: 8aa1 d83c 1b90 b9be 6a77 2abe 6d1c 503d
00000150: 060e e33c 4fe4 cb3d b8b0 463e fc56 913e
00000160: 9085 833e 571e 00be a0f8 183e 44e5 d93e
00000170: 91f7 8a3e aed2 1abd c574 1dbd a5ed 9a3e
00000180: 40a3 d93e 7db7 a83d 7789 7dbe 40f7 3abd
00000190: 6756 303e 3862 8b3c 8d5a 583d 1b7a 2b3e
000001a0: 8624 4b3e 6606 043e 1da8 893e 0841 713e
000001b0: ae2c f2bd 7353 80be 7942 6c3d 8ed7 063e
000001c0: c447 06be ae19 4ebe 9f8e a1be 4c76 793d
000001d0: 0038 173e 1ea6 d7bd b7dd b53d 9e4b 1b3e
000001e0: 5db1 4c3d cd71 f2bd 12ba 4ebe 8060 71bd
000001f0: a483 753d e62f ec3e deb6 b53e 50ae fd3e
00000200: 4925 973e bd28 e93d f09a bc3d 721d 15be
00000210: 584d 2c3e 1925 da3d 3cbf 343d 6ac3 183d
00000220: 26fd 17be 760b 0cbf 76a2 98be dd6f 343e
00000230: 7f15 e0be 71c6 053d 8f01 19be 2363 b9be
00000240: acd8 fb3c 2433 4abf 2e59 21be 12cc 203e
00000250: 878a 81bd 3d7f 5c3e d150 26bf f7e0 4fbe
00000260: 401c 18be 2b6a 2fbe 4248 91be 7ed9 943d
00000270: d772 a23e 99e1 683e fa49 ec3d d1d6 d4bd
00000280: 82cb 4fbd 695e 59be 4ce0 e3bd 8994 2c3e
00000290: 2cc8 46be fa8a dc3a 4c7d 29be 570b f33d
000002a0: 5cef 01be 4e36 93be a877 28bc f320 8dbc
000002b0: 3329 bf3c 2967 a23c db6c 173e 75f2 be3c
000002c0: f68b a93e 066e 2e3e d57c 6e3e bf3d 053e
000002d0: ca2c 613e 8e7c d23d 89d9 253e 052e b2be
000002e0: ab9b b63d e5d6 d0bd dd86 483c 0b6f 03be
000002f0: 470f bdbe b2e4 85be b5a3 803d 6123 263b
00000300: 9364 4b3e a0b8 cfbd 1787 79be c4ea 1bbd
00000310: bcd3 85be f4b4 01be 8c32 58bd 6abf 843c
00000320: dfba 2cbd ca76 42bd 7816 0dbe 2180 e03d
00000330: b7ea a03d ddd4 e63d f8f3 823c 8f86 81be
00000340: e32e 67be f969 663e b9a7 e83d f9ec d8bd
00000350: 43d2 773e 2328 dabe ce1c 51be 2569 ce3e
00000360: 0169 923e cbc6 18bd fbad 583e 224d 8e3d
00000370: baee 49bd 9d4f 69bd 6c3d 90bd 3cab 193e
00000380: fd24 cf3d 5a68 d83d c0db 8dbe 44e0 83be
00000390: ec51 e7be 1753 c23e d417 003d d3f9 29be
000003a0: cac4 2a3d b18c 803d 9e9f 293d 9d7d 6e3b
000003b0: 4f54 51be be89 9ebe 0876 903e 88ad cc3d
000003c0: 0f8d d43c 6299 56bd fb3b f93d 3651 e0bd
000003d0: 52e6 ab3d 638e 0ebe df4a 2bbd f0d8 c83d
000003e0: 6dfd 72be 1293 a03d ea5e a5bd 14a2 04bf
000003f0: 9553 c3bd 4402 303e c76f efbb c184 e3bd
0.048354823 -0.07553694 0.17988011 0.17803267 0.0233989 -0.029976107 0.04023302 0.28868404
0.1386139 0.12711443 -0.19703475 0.056587975 0.2535271 0.10557672 0.030535702 0.026354482
0.0072830496 -0.083677284 0.091125004 -0.13576795 -0.24049327 -0.24082682 -0.3220158 -0.20150372
-0.1473682 -0.07613443 -0.020141603 0.26967826 0.054054923 0.10098426 0.030014867 -0.21738622
0.29548445 -0.053831544 -0.15168525 0.020453066 0.041139584 0.18657963 0.06930701 -0.13362789
-0.050439235 0.11206792 -0.19701031 -0.2899155 -0.013051604 -0.35904297 -0.057261392 -0.23016253
0.20187894 -0.101313494 0.27537957 -0.6810855 -0.4397958 0.03910618 0.37015712 0.043356888
-0.23354399 0.21795149 -0.10417366 0.09131302 -0.014942512 -0.19230354 0.04850645 -0.072195046
0.051866632 -0.013046423 -0.04095106 0.04445735 0.07415031 0.17912486 -0.03143684 -0.15653974
-0.390073 0.05662972 0.117048055 -0.20587257 -0.79627717 -0.57323694 -0.5564981 -0.28685018
0.026444215 -0.36242756 -0.16647115 0.05080836 0.027716648 0.09955656 0.1940335 0.28386676
0.25687838 -0.12511574 0.14938593 0.42557728 0.27142003 -0.037798576 -0.03844144 0.30259433
0.42507362 0.082381226 -0.2475947 -0.045645952 0.1722046 0.017014608 0.05282073 0.16745798
0.19838151 0.12893066 0.26886073 0.23559964 -0.11824928 -0.25063667 0.05768058 0.13168165
-0.13113314 -0.20126984 -0.31554124 0.060903832 0.14767456 -0.10529731 0.088801794 0.15165564
0.049973834 -0.11838112 -0.20188168 -0.05892992 0.059939995 0.46130294 0.3549108 0.49547052
0.29520634 0.11384723 0.092092395 -0.14562014 0.1682638 0.10651607 0.044127688 0.037295736
-0.14842662 -0.5470499 -0.29811448 0.17620797 -0.437664 0.03265995 -0.14942001 -0.36208448
0.030742966 -0.78984284 -0.15756676 0.15702847 -0.0632525 0.21532913 -0.64967066 -0.20300661
-0.14854527 -0.17130344 -0.2837544 0.07268046 0.3172824 0.22742309 0.115375474 -0.103925355
-0.05073119 -0.21227421 -0.111267656 0.16853537 -0.19412297 0.0016826086 -0.16551703 0.11867397
-0.12688965 -0.2875237 -0.0102824345 -0.017227625 0.023335075 0.019824581 0.14787619 0.023308972
0.33114594 0.17034158 0.23289807 0.13011836 0.21989742 0.10277663 0.16196264 -0.34800735
0.0891641 -0.10197238 0.012239185 -0.12835328 -0.36925718 -0.26151043 0.06281225 0.0025350677
0.19862585 -0.10142636 -0.24367939 -0.038065687 -0.26138103 -0.12666684 -0.05278258 0.016204555
-0.0421704 -0.047476567 -0.13778102 0.10961939 0.07857268 0.11271069 0.015985474 -0.25297973
-0.2257648 0.22501363 0.113601156 -0.10592074 0.24201302 -0.42608747 -0.20421144 0.40314594
0.28595737 -0.03729896 0.21160118 0.06948306 -0.049299933 -0.05696069 -0.07042965 0.15006727
0.10114477 0.105667785 -0.27706718 -0.2575704 -0.4517969 0.37954018 0.031272724 -0.16599207
0.04169158 0.06276835 0.04141199 0.003639079 -0.20442317 -0.30964464 0.2821505 0.09994036
0.025946168 -0.05239237 0.121696435 -0.1095299 0.083935395 -0.13921504 -0.04181945 0.098070025
-0.23729487 0.078405514 -0.08074744 -0.5180981 -0.095374264 0.17188364 -0.007307026 -0.11109305

bias f4 [100]
00000000: 81b4 3e3c edf6 113c c578 b3bc bc6d 7abc
00000010: 0032 273d ced6 7b3c b268 08bc f490 823b
00000020: 9d39 7539 25e4 e8bb bbb6 3f3c 598a 013c
00000030: 6f39 d8bc 74c6 8f3a 4b1c b8bb ba4e d33c
00000040: 25bb bcbc 9d00 b03c 745d e13c f0d5 733c
00000050: 5c24 62bc c430 043c 9c09 e7bb 34a6 3bbc
00000060: a717 8f3b f402 803c 0cf2 e0bc bcf4 a03c
00000070: 2f17 cc3b 8149 c2bc 30e4 12bc 6dc7 ea3c
00000080: 5bab 75bc e49d 383c 384b 06bd b14a 8dbb
00000090: 7cc2 b53c 2be1 c9bc 6b29 9e3c ef57 96bc
000000a0: ea88 0d3d a6bc 083b 277d 67bc 8975 7ebc
000000b0: a04d 9a3a 7ff3 eabc d5b1 c03c a530 debc
000000c0: a5ce 823c 0d7a b83c 645a a73b 1e4e 56bc
000000d0: 1a19 dabb dfb5 c0bb 5dea e0bc 3cd2 9238
000000e0: 38b4 783c 8fa8 14bd 2cfb 5ebb 6460 7d3c
000000f0: 3621 cfbc 0b63 5cbc 3c46 88bc 71ae 0f3c
00000100: 43ab 0bbd 1f00 c43c 25fb b13c d592 c0bc
00000110: d1d7 b63c d9b9 1d3c 84c8 6439 8883 d43c
00000120: 189b 0e3b 8972 0c3d 67fe 0fbc e968 b53b
00000130: 6ee8 2bbd 9b35 453d 392a b43b fa17 363a
00000140: 2397 cb3b f93c f1bb f98c 073b fa53 b33c
00000150: 2811 013d 0900 3f3c ac21 c93c eb0c c0bc
00000160: 337a 7fbc a2fd 613b 708f 853c 65df c3bc
00000170: 9dde 17bc 8763 a8bb 3991 17bc e04a 0b3d
00000180: 24af 9cba f6f4 f13a 1e53 d2bc eae4 a93c
0.011639715 0.008908969 -0.021908173 -0.015284952 0.040819168 0.015371038 -0.008325743 0.003984565
0.00023386483 -0.007107275 0.011701281 0.00790652 -0.026394574 0.0010969178 -0.005618607 0.025794376
-0.023038456 0.021484667 0.027510382 0.01488255 -0.013802614 0.008068267 -0.007050706 -0.0114532
0.0043668333 0.015626408 -0.027459167 0.019647948 0.0062283496 -0.02371669 -0.008965537 0.028659547
-0.014994468 0.011268113 -0.032786578 -0.0043118824 0.022187464 -0.024643501 0.019306859 -0.018352477
0.0345544 0.0020864396 -0.01412896 -0.015530952 0.0011772402 -0.028680561 0.023522297 -0.027122805
0.015967676 0.022519136 0.005107211 -0.013080148 -0.0066558244 -0.0058810557 -0.027455503 7.000982e-05
0.015179686 -0.036293563 -0.0034024222 0.015464876 -0.02528439 -0.013451348 -0.016635053 0.008769617
-0.034098875 0.023925839 0.0217262 -0.023507515 0.022319706 0.009626829 0.00021818472 0.025941625
0.0021759924 0.034288917 -0.008788682 0.005536188 -0.04196971 0.048146825 0.0054981974 0.0006946322
0.0062130853 -0.007362005 0.0020683391 0.02189063 0.031510502 0.011657723 0.024552189 -0.02344366
-0.015593099 0.0034483452 0.016303748 -0.023910234 -0.009269384 -0.0051388177 -0.009250932 0.034006953
-0.0011954051 0.0018459845 -0.025674399 0.020739038

weight f4 [100]
00000000: bf9b 6c3f c4d7 5a3f aa79 763f 4da6 763f
00000010: 72ea 6c3f 05a0 793f 234d 6a3f 2fb5 733f
00000020: d19d 783f 444c 6f3f 2c64 723f 96d7 753f
00000030: 31e8 803f 0374 753f 46b2 763f 62b8 7a3f
00000040: e66c 6b3f 427b 873f eb12 823f 4cd1 873f
00000050: a3bf 593f fb2c 773f 5dcb 703f f93b 7c3f
00000060: fcb8 653f 51fe 6e3f 79fe 5a3f fdb0 7b3f
00000070: 2f5c 813f 6991 853f 9b33 5c3f 61e8 713f
00000080: a858 853f 6abf 7a3f 622f 663f ee54 693f
00000090: 4075 7d3f 30ef 773f 1891 7d3f b3ba 703f
000000a0: a805 5e3f a7f4 783f 2fb5 653f 419f 773f
000000b0: 5aaa 7d3f a6ec 793f e1d0 683f 0e68 553f
000000c0: d972 713f df31 643f 8c2a 633f 0dcf 5a3f
000000d0: a257 7f3f eef6 743f 4d40 7e3f ffc4 673f
000000e0: 605e 743f 4548 7c3f 57ab 653f 8038 753f
000000f0: 9146 853f a8a7 743f 4ba1 7c3f b27a 773f
00000100: c67d 703f ee54 743f c704 763f 3075 7a3f
00000110: fb04 6a3f 72e5 5d3f d81e 713f b08b 653f
00000120: f227 7d3f b39a 673f 145c 6f3f 1689 663f
00000130: 630b 683f 6f91 873f 59d1 683f f7e9 823f
00000140: c47f 793f 1a0f 5d3f a21c 8a3f 218b 813f
00000150: 0829 753f 888d 6d3f baac 783f 6730 643f
00000160: b7d4 743f 2188 653f b8c1 7e3f a4c9 733f
00000170: a276 803f ae15 733f b3a2 723f 63ba 7d3f
00000180: 6285 703f c75b 7b3f ae30 7c3f 5aeb 723f
0.9242515 0.8548548 0.96279395 0.96347505 0.92545235 0.97509795 0.9152395 0.9519834
0.9711581 0.9347575 0.946841 0.96032083 1.0070859 0.95880145 0.96365774 0.97937596
0.9196304 1.058449 1.0162023 1.0610747 0.8505804 0.9655301 0.9406031 0.9852901
0.8973539 0.93356806 0.85544544 0.9831694 1.0106257 1.0435001 0.86016244 0.9449521
1.0417681 0.97948325 0.8991605 0.9114522 0.99007034 0.96849346 0.9904952 0.9403488
0.8672738 0.9724831 0.8972959 0.9672738 0.9908806 0.9762672 0.90943724 0.833619
0.9431587 0.891386 0.88736796 0.85472184 0.9974309 0.95689285 0.99316865 0.9053497
0.95456505 0.98547775 0.8971457 0.9578934 1.041216 0.95568323 0.98683614 0.96671593
0.93941915 0.9544209 0.9610104 0.97835064 0.9141385 0.8667823 0.9418769 0.8966627
0.98889077 0.9047043 0.93499875 0.90052927 0.90642375 1.0591258 0.9094444 1.022765
0.9746058 0.8635117 1.0789988 1.0120584 0.95765734 0.92794085 0.9713856 0.89136356
0.9563708 0.8966084 0.9951434 0.95229554 1.0036204 0.94954956 0.9477951 0.9911253
0.93953526 0.98186916 0.9851178 0.9489037

bias f4 [100]
00000000: 7f03 cebe d0dc aabe 0573 d4be 6148 b2be
00000010: 4993 edbe abe7 0ebf 9843 a1be a4a8 c7be
00000020: 6c2a d9be e4b7 8bbe 5a81 abbe 033a a7be
00000030: 0e02 67be 2ccd f1be 9e9e 75be c01b c7be
00000040: 7434 cebe f15c a2be 05c5 febe 6d6d 9abe
00000050: a984 70be d6d8 ddbe 3641 abbe 66cd f3be
00000060: 1ac0 0dbe 709c 96be 2c9d fcbe e4cf d4be
00000070: d352 dcbe 4128 c9be 57da c7be 9121 90be
00000080: 55f0 c3be 4ab0 01bf 8e98 08bd be8d afbe
00000090: 3bd4 05bf 761a 99be e0a4 e0be 953a dfbe
000000a0: d26f 10bf c1ca 8ebe 4952 72be f2d1 afbe
000000b0: 9a38 c7be 0c90 11bf 64d8 bcbe f8da 87be
000000c0: 49b5 8ebe e9a7 a0be 7ca7 c6be 5912 12be
000000d0: 1af2 02bf 72a3 a4be 115e a1be 57ab 88be
000000e0: 6dfd 07bf 301d e7be 2988 c1be 1621 a2be
000000f0: 735f 9bbe fcb7 f5be f3ab b6be 6518 09bf
00000100: 4a40 9dbe 923a cdbe be39 7abe a81b ebbe
00000110: 9000 e8be 140c a9be c701 41be fa44 babe
00000120: 14ad e8be 9df3 7abe ac94 a8be 3a7f 9abe
00000130: 13da 4fbe 2b53 a2be 53d6 82be 480b a4be
00000140: 0f98 d5be 5746 84be 48e4 d6be aa58 b5be
00000150: e3cc ecbe 1852 c5be 48ff 9abe cdcf c5be
00000160: 955c f3be be15 5ebe 955d 69be 6422 fdbe
00000170: bc8f 91be 99fd b8be f9c6 9ebe 3887 e3be
00000180: 337d a4be 1af2 e9be a16f f9be b140 abbe
-0.40237042 -0.33371592 -0.41494003 -0.34820846 -0.46401432 -0.5582225 -0.31496882 -0.3899585
-0.42415178 -0.27288735 -0.33497125 -0.32661447 -0.22559378 -0.47226846 -0.23986289 -0.3888836
-0.40274394 -0.31711534 -0.4975969 -0.3016161 -0.23488106 -0.43329495 -0.3344819 -0.47617644
-0.13842812 -0.29416227 -0.49338663 -0.41564858 -0.4303194 -0.39288524 -0.39033768 -0.2815061
-0.38269296 -0.5065962 -0.033348612 -0.34287828 -0.52276963 -0.29903 -0.4387579 -0.43599382
-0.56420624 -0.27889064 -0.23664202 -0.34339863 -0.3891037 -0.56860423 -0.36883843 -0.26534247
-0.27872685 -0.31378105 -0.38799655 -0.14264812 -0.5115067 -0.3215595 -0.3151708 -0.26693222
-0.5312107 -0.45139456 -0.37799194 -0.31665868 -0.3034626 -0.4799193 -0.35678062 -0.5355285
-0.3071311 -0.40083748 -0.2443609 -0.45919538 -0.4531293 -0.33017027 -0.18848334 -0.3638075
-0.45444548 -0.24506994 -0.32925928 -0.3017519 -0.20298032 -0.31704077 -0.2555414 -0.32039857
-0.41717574 -0.25834915 -0.4197104 -0.35419208 -0.46250066 -0.38539195 -0.3027289 -0.38635102
-0.47531572 -0.21687981 -0.22789605 -0.494403 -0.28429973 -0.3613098 -0.3101118 -0.444391
-0.3212677 -0.4569252 -0.4871798 -0.33447793

running_mean f4 [100]
00000000: d375 32c0 f4f9 fdbf f0a4 3bc0 76f4 20c0
00000010: 3f9e 2cc0 bcd3 94c0 da52 11c0 4b24 3cc0
00000020: 1605 11c0 fcd8 d5bf 4494 35c0 093f ebbf
00000030: 9132 37c0 beab 40c0 2844 c5bf cfa2 55c0
00000040: 901f 51c0 927e 34c0 c929 5ac0 d75f 39c0
00000050: b6a9 2cbf 90ae 72c0 ba02 28c0 eb5d 5bc0
00000060: bd32 66bf 5455 d9bf f9d1 5fc0 20de 5dc0
00000070: 8437 60c0 5cab 79c0 2bf1 fabf 4d84 dcbf
00000080: 7da3 8cc0 df2b 57c0 b982 91bf 85f9 d0bf
00000090: 1ff2 7fc0 a516 ecbf b759 18c0 1be8 15c0
000000a0: 06de 56c0 949f 2dc0 74dc c3bf c8ff 20c0
000000b0: b77c 86c0 b4fe 9bc0 e698 1ac0 f518 f4bf
000000c0: c826 48c0 0cde 09c0 e511 ddbf 4169 95bf
000000d0: d095 91c0 ec3b 1fc0 555c f7bf f851 e2bf
000000e0: d838 6bc0 0114 44c0 1b1d 1fc0 9ce1 16c0
000000f0: 48e2 4cc0 bbcd 8fc0 bdba 1ec0 f7e4 8ac0
00000100: e4c9 0ec0 55e0 0bc0 36bb 1bc0 39d1 43c0
00000110: 4004 cabf c95b c8bf 6213 c6bf f116 b5bf
00000120: b607 66c0 1d8f e3bf e71e b4bf 6b0b 18c0
00000130: 621d e5bf 17f1 25c0 9aaa 02c0 d1d7 18c0
00000140: d375 3dc0 804e 18c0 0226 7bc0 0306 3ac0
00000150: 5d8f 95c0 7ba8 16c0 d21c 47c0 6b65 03c0
00000160: 5219 3bc0 7ecb dbbf 1080 febf 14d8 67c0
00000170: 4b3a 86c0 baf5 ebbf b323 1cc0 290e 33c0
00000180: 552c 4fc0 ee2f 59c0 dd16 8ec0 d0a1 48c0
-2.7884414 -1.9841905 -2.931942 -2.5149207 -2.6971586 -4.6508465 -2.2706819 -2.9397151
-2.2659354 -1.6706843 -2.8371744 -1.8378612 -2.8624613 -3.0104823 -1.5411425 -3.338062
-3.2675514 -2.8202252 -3.4088004 -2.8964746 -0.6744646 -3.7919044 -2.6251664 -3.4276073
-0.8992117 -1.6979165 -3.4971907 -3.4666824 -3.5033884 -3.901084 -1.9604849 -1.7227875
-4.394957 -3.3620527 -1.1368018 -1.6326147 -3.999153 -1.844441 -2.3804758 -2.3422916
-3.3573012 -2.7128649 -1.5301652 -2.5156116 -4.202724 -4.8748417 -2.4155822 -1.9070116
-3.127367 -2.1541777 -1.7271086 -1.1672746 -4.5495377 -2.4880323 -1.9325052 -1.7681265
-3.6753445 -3.063721 -2.4861515 -2.35752 -3.201311 -4.4938636 -2.4801476 -4.34045
-2.2310724 -2.1855671 -2.4333014 -3.059645 -1.5782547 -1.5653011 -1.5474665 -1.4147626
-3.5942206 -1.777805 -1.4071931 -2.375697 -1.7899592 -2.59284 -2.0416627 -2.3881724
-2.9603164 -2.3797913 -3.9241948 -2.906617 -4.6737504 -2.3540332 -3.111134 -2.053065
-2.9234204 -1.7171476 -1.9882832 -3.6225634 -4.194616 -1.8434365 -2.439679 -2.7977393
-3.2370808 -3.3935504 -4.440291 -3.1348763

running_var f4 [100]
00000000: c05b a941 2060 7541 8e83 a941 5e42 8341
00000010: 6c81 a541 d67b c941 f3fa 9f41 b4ac dd41
00000020: 7c06 a941 229b 9d41 7a3d a141 9d8c 8f41
00000030: 9c3e 0b42 8152 a241 4a4a b041 38bd e441
00000040: 1d50 aa41 c711 a441 9247 9d41 d32d ed41
00000050: 64f2 ca41 de1c f241 1087 9c41 c169 a541
00000060: 7de5 a041 2a0d 6e41 f3c1 7341 56e4 d141
00000070: 033c 0042 c066 eb41 b0c5 7441 0f05 9441
00000080: f2d6 2842 9df9 c741 ac83 8741 ab7f a741
00000090: c536 e641 29d8 bb41 900d 9641 492c 6741
000000a0: e96c 6141 06ad eb41 5a3d 7341 a8fa 8541
000000b0: 0f27 1b42 53f5 c141 f265 c241 9126 7941
000000c0: 8ce7 dd41 58b5 7b41 24af 9341 0924 8d41
000000d0: 948e ed41 901f c641 583e 6141 04c6 8441
000000e0: 6e47 9c41 b4b6 b141 aac2 9641 be10 bf41
000000f0: 58b2 fa41 c730 f041 a2c6 8e41 40a1 dc41
00000100: fc1d 7f41 0af0 a941 9e0f ab41 7eed c341
00000110: 3c8d 8741 038d 6141 3f27 8741 9bc1 5841
00000120: a721 f141 7468 8641 12c1 5f41 6c15 9441
00000130: 9ed2 ce41 d4d8 db41 1aab b841 f574 c741
00000140: 394f c541 3a45 8841 c472 e141 9aa5 c741
00000150: e76b d841 6215 9741 d582 d541 d263 9b41
00000160: 3736 cc41 0c5c 9841 7e24 8941 784c ce41
00000170: 9b9f 1b42 2176 7741 a2a4 9c41 4a58 e341
00000180: 7530 c441 b58d af41 d6b8 fd41 861d b441
21.1698 15.335968 21.189236 16.407406 20.688194 25.185467 19.997534 27.709328
21.128166 19.700748 20.155018 17.943659 34.811142 20.290285 22.036274 28.592392
21.289118 20.50868 19.659946 29.647375 25.368355 30.264095 19.565948 20.676638
20.112055 14.878214 15.234851 26.236492 32.058605 29.42517 15.298264 18.50247
42.209908 24.996881 16.939293 20.937338 28.776743 23.480547 18.756622 14.448312
14.089089 29.459484 15.202478 16.74739 38.788143 24.244787 24.299778 15.571916
27.73806 15.731773 18.460518 17.642595 29.694618 24.765411 14.077721 16.596687
19.534878 22.21421 18.84505 23.883175 31.337082 30.023817 17.846989 27.578735
15.94482 21.242207 21.382626 24.490963 16.943962 14.096927 16.894163 13.547267
30.141432 16.801003 13.984636 18.51046 25.85284 27.480873 23.083546 24.932108
24.663683 17.033802 28.181038 24.95586 27.052687 18.88544 26.688883 19.42374
25.526472 19.044945 17.142818 25.787338 38.905865 15.46634 19.580387 28.41811
24.52366 21.944193 31.715252 22.514416

weight f4 [100, 100]
00000000: fd32 8e3d 5204 41bd 2936 583d 14f4 8dbb
00000010: 84e5 e93b 7db0 3539 cf90 a2bd b0a6 ba3c
00000020: a450 3ebe 973c 173e 81c6 05bc 2f18 803e
00000030: ecdd 72be cfd8 a8bc 54b1 27bf 9c87 50be
00000040: 81b7 37bd 0e3d 533c 3308 f33d 5519 adbe
00000050: c221 77be 4953 99bd f703 cfbd 8975 5c3e
00000060: 1e49 92be 22ac 8d3e 3e64 3ebe 3794 aabd
00000070: 4e29 633d 2c9e 76ba cbd8 913e 27a9 b33d
00000080: 6972 493c 13c9 92be 17f1 673e 91d4 0abe
00000090: f2a3 563e 8db8 50be bf65 a73c 314a 083e
000000a0: 99d3 233e f86d 943e c2c3 af3d e7ec 76bd
000000b0: 9539 d83d 0b8a e4bd 3140 0fbf 4050 8f3d
000000c0: 6678 02bd bd01 383e df59 9a3e d407 ffbb
000000d0: 7ca5 98bf 1e45 8f3d 6278 1f3b e2dd 08bc
000000e0: a72c 06be 955d 113d af23 d1bd 8f58 183e
000000f0: ea92 e0be ddb9 3abd 5eb8 f13d 3325 88be
00000100: 1d2c bf3c 9931 023e 2840 543e 2a1c 15be
00000110: 6724 fabd d23c 363e 4cf4 413d 5efb 9c3d
00000120: 0c19 ac3d a57a b43c e20f 263d 8a16 943d
00000130: cfd4 983d 579b abbf 6e56 883e 91a6 573d
00000140: 58c5 64bf 293c 083e 8176 05bf 7ca9 1fbe
00000150: 88b3 ecbc c190 0bbd fd3b 4a3e 56fb 593d
00000160: 2024 78be e301 79bd 714f 8cbd a76f 2f3d
00000170: 5598 8bbc 9ff4 4c3e 2ce5 aabc c98c 28bf
00000180: 4b59 813d 320b 2bbf a57c 6bbf b141 2abd
00000190: 6fcf dabe b4d3 45bd a9cc 66be 86ee be3e
000001a0: fffe 18bf c001 ad3c 2814 e33d e26d 5dbd
000001b0: 74ac 8ab9 1457 b73d 3765 853e 8174 92bd
000001c0: 992c 32bd ed81 e0be 10df 95be 1fca c13d
000001d0: 628c b33c 513f 0e3e c915 803d 7a2b 433d
000001e0: a091 ddbd 8a49 b23e 1dc7 603e 4c68 32be
000001f0: 0d01 56be 243a 113e bc30 5cbb 0464 3cbe
00000200: d73c 923d b52d a93d 9ef3 e6be 3e31 f7be
00000210: ce59 5b3b 818d c13e 3c7d a83d 33b1 0f3e
00000220: 5c63 c53d 484c 5bbd 575c ebbd 8600 debc
00000230: bcbe 8bbf 2583 8ebd dc7a ab3d 67da 723e
00000240: 41ce f73d 0ac3 893e 1439 febd 7ca4 99bd
00000250: 7a0c cbbc 6e9b 52be 9b38 683d 4a7d 2bbf
00000260: 5db8 69bd 48e6 83bf c177 6c3d 71fa 933d
00000270: 1229 4b3e 83a6 dd3d 7cec abbd d532 a93d
00000280: ae9d 92be c044 e63d 6a1d 8f3d 1de7 81be
00000290: 9f9a ab3c 3298 04bd 16ca 30be d860 6c3d
000002a0: a2dc e03d cc22 00be 8262 db3b aa92 b3be
000002b0: b1dc 55bd f154 b53d e008 c5be 84e0 c7bd
000002c0: 832f a03d 1569 2fbd 6ee1 9abf 1791 c6bd
000002d0: 5280 303c 303f 13be 1fa3 28bd 8c82 9cbe
000002e0: 570b dabd e6e1 a4bd 8870 15be 3d67 e1bd
000002f0: ee9f 103e 32c0 f03d da2d 053e 8ebe bfbd
00000300: 18bb 72bd e543 7c3e 6d1a 6bbd 3879 c8bd
00000310: edb0 2fbe 1bd8 6ebe 7139 72be e062 fdbe
00000320: d433 fdbd 8406 3d3c 9c3f 05bf 9518 7fbd
00000330: 15e1 8a3d 8aed 52be 5aca c9bd 944d 9abe
00000340: 7c85 1f3d b39a 1e3e ec38 1bbf 4634 5cbe
00000350: 090e 98bd dd23 5dbe 1f5f b23d cb4a 6a3e
00000360: 7e8e b5be cfcb 8a3d 0c87 d3be 4993 46bd
00000370: 2ae9 003e a154 d7be b346 1d3e ffb3 72be
00000380: c104 72bd df6c f83d 7c76 1ebc 5315 f43c
00000390: 40eb a03c 5fb6 d63d 06ff c0bc 0f10 5f3e
000003a0: cb4d 9d3c c1d9 d0be 6dba d5bd 0bf0 a13c
000003b0: 27a7 b4be 5e2d 19bd b6ac 8cbd 55a1 bd3c
000003c0: 68aa 38bc bb8f 7dbf fb9c 36be e986 a03d
000003d0: 56d2 06bc ea25 0d3e 916e bf3d a80c 5fbc
000003e0: 93a2 0cbf 2cdd c73d 94df babe f6bb 313e
000003f0: 6ecb 123d 491b 963c 1731 7b3e bef6 6fbd
0.06943319 -0.04712326 0.052786026 -0.004332075 0.007137956 0.00017327252 -0.07937776 0.02278456
-0.1858545 0.14769207 -0.008165003 0.2501845 -0.23717469 -0.020611195 -0.65504956 -0.20364231
-0.044852737 0.012892975 0.11866798 -0.3380839 -0.24133971 -0.074865885 -0.10108178 0.21529211
-0.2857141 0.2767039 -0.18592927 -0.08329051 0.055459313 -0.0009407725 0.28485712 0.087724976
0.012295344 -0.28669032 0.22650562 -0.1355765 0.20960978 -0.203829 0.020434259 0.13309552
0.15998687 0.2899015 0.0858226 -0.06028452 0.10557858 -0.11159142 -0.55957323 0.06997728
-0.031853102 0.17969413 0.3014669 -0.0077829156 -1.1925502 0.06995605 0.0024333228 -0.008353682
-0.13102971 0.035489637 -0.10211884 0.14877532 -0.43862087 -0.04558741 0.118027434 -0.2659088
0.023336465 0.12714233 0.20727599 -0.14561525 -0.122139744 0.17796639 0.04735212 0.07665132
0.08403215 0.022031138 0.04054249 0.072308615 0.07462465 -1.3406781 0.2662844 0.052649084
-0.8936362 0.133042 -0.5213395 -0.15591997 -0.0288942 -0.034073595 0.19749446 0.05321821
-0.2423253 -0.060792815 -0.0685109 0.04283109 -0.017040411 0.2001519 -0.02086123 -0.6583982
0.063158594 -0.6681396 -0.9198707 -0.041566554 -0.42736384 -0.0482976 -0.22539009 0.37291354
-0.59764093 0.021118999 0.11087829 -0.05405987 -0.000264499 0.08952156 0.26053783 -0.071511276
-0.043499563 -0.43849126 -0.29271746 0.0946238 0.021917526 0.13891341 0.06254155 0.047648884
-0.108187914 0.3482173 0.21950956 -0.17422599 -0.20898838 0.14182335 -0.0033598384 -0.18397528
0.071405105 0.08260671 -0.4510774 -0.48279756 0.0033470276 0.3780327 0.082270116 0.1403244
0.09638092 -0.053539544 -0.11492222 -0.027099859 -1.0917583 -0.069586076 0.08373043 0.23716126
0.12099887 0.26906615 -0.124132305 -0.07502076 -0.024786223 -0.20567104 0.05669461 -0.6698805
-0.05706059 -1.0304651 0.057731394 0.07225502 0.19839886 0.10822775 -0.08394715 0.082616486
-0.28635925 0.11243582 0.06988032 -0.25371638 0.020947753 -0.032371707 -0.1726459 0.057709545
0.10979582 -0.12513274 0.0066950927 -0.35072833 -0.05221242 0.08854092 -0.38483334 -0.0975962
0.07821562 -0.042824823 -1.2100046 -0.096956424 0.010772781 -0.14379573 -0.04117119 -0.3056835
-0.10646694 -0.08050899 -0.14593709 -0.11006019 0.14123508 0.11755408 0.13005772 -0.09362517
-0.059260458 0.24635275 -0.05739825 -0.09788746 -0.17157336 -0.23324625 -0.23654725 -0.49489498
-0.12363401 0.011537198 -0.52050185 -0.062279303 0.06781212 -0.20598426 -0.098530486 -0.30137312
0.03894566 0.154887 -0.6063373 -0.21504316 -0.07424552 -0.21595712 0.08709549 0.22880094
-0.35460275 0.06777155 -0.4131397 -0.048480306 0.12588945 -0.42056754 0.15359001 -0.23701476
-0.059086565 0.121301405 -0.009671804 0.029795324 0.019643426 0.10484003 -0.023559105 0.2178347
0.019202134 -0.40791133 -0.104359485 0.019767782 -0.35283777 -0.03739678 -0.068688795 0.023148218
-0.011271097 -0.9904744 -0.17833321 0.07838232 -0.008228859 0.13783994 0.09347261 -0.013613857
-0.5493557 0.09758982 -0.36498702 0.17356858 0.035838537 0.018323557 0.24530445 -0.05858492
